DynaQ/V2_EpisilonBurstof1.0/model.pt (torch, 80180 bytes, 6 tensors)

weight f4 [128, 13]
0	0x3fed4547	1.8536767
1	0x3f34e20c	0.7065742
2	0x3e484202	0.1955643
3	0x3e28b719	0.16476096
4	0x3fb08323	1.379002
5	0x3f42e70f	0.7613382
6	0x3e2b450c	0.16725558
7	0xbfd6ce14	-1.678164
8	0x4030c032	2.7617307
9	0xbe31d268	-0.1736542
10	0x3e2e23a4	0.17005783
11	0x3e5eafe6	0.21746787
12	0x3f0d06f5	0.5508874
13	0x4007ed23	2.1238487
14	0x3f825ad3	1.0183967
15	0x3f55bd44	0.8349192
16	0x3eab1fdd	0.33422747
17	0x3f40cb88	0.75310564
18	0x3fb74d76	1.4320514
19	0x3fb097ed	1.3796364
20	0x3f664213	0.8994457
21	0x3fc2c92a	1.521764
22	0x3f3bcf22	0.73362935
23	0x3f642e5c	0.8913324
24	0x3eb830ca	0.35974723
25	0x3f754d8d	0.9582146
26	0x40224b65	2.5358517
27	0x3fd61337	1.6724614
28	0x3fddc4e3	1.732571
29	0x400b3c40	2.1755524
30	0x3fc2af43	1.5209736
31	0x4017a522	2.369454
32	0x3fec2871	1.8449842
33	0x3f0249dc	0.5089395
34	0x3ffb54b3	1.9635223
35	0x3e43ec16	0.19133028
36	0x3fd9f8df	1.7029074
37	0x4009b136	2.151441
38	0xbd6489b9	-0.055795405
39	0x4045d8e3	3.0913627
40	0x40060e05	2.0946057
41	0x3fe39336	1.77793
42	0x4024c3fb	2.5744617
43	0x3f80ef9d	1.0073124
44	0x400caeff	2.198181
45	0x40000f3e	2.0009303
46	0x3fa2e418	1.2725859
47	0x3eeb1090	0.45911074
48	0x3f9c2621	1.2199136
49	0x3f6ccb82	0.9249803
50	0x3ed5c2d6	0.4175021
51	0x3eb60e96	0.35558003
52	0x3fb9f84f	1.4528903
53	0x3e29768f	0.16549133
54	0x3f24ed95	0.6442502
55	0x3f2449ba	0.64175
56	0x3f14ba57	0.5809683
57	0x3ee45b83	0.44601068
58	0x3ed680e6	0.41895217
59	0x3dd712de	0.105016455
60	0x3f393b7e	0.723564
61	0x3f14f0eb	0.5818011
62	0x3f4451ad	0.7668713
63	0x3f20ed8c	0.6286247
64	0x3f161c0d	0.5863655
65	0xc02492d4	-2.5714617
66	0xbf48c2b6	-0.78422105
67	0xbfb7710a	-1.4331372
68	0xbedbfcb8	-0.42966247
69	0xbf3b1ac4	-0.73087716
70	0x3e19210b	0.14954011
71	0xbd494d7a	-0.049146153
72	0xc05cd2b4	-3.4503603
73	0xc0d11b9e	-6.5346212
74	0x3e090475	0.13380606
75	0xbf30ddb1	-0.69088274
76	0xbf832522	-1.0245707
77	0xbf81d5f6	-1.0143421
78	0xbfbe5253	-1.4868873
79	0xbfb14cd3	-1.385157
80	0xbfb80566	-1.4376647
81	0xbfe3a542	-1.7784808
82	0xbf87ba79	-1.0603782
83	0xbfc67df2	-1.5507185
84	0xbfd1785f	-1.6364859
85	0xc117c8fa	-9.486567
86	0xc0188b27	-2.3834932
87	0xbf14f593	-0.58187217
88	0x3e164348	0.14674103
89	0x3f9b29ff	1.2122191
90	0x3fbc61cb	1.4717344
91	0x4029c63d	2.6527245
92	0x3e73db75	0.23814185
93	0x3f267825	0.65027076
94	0x3f722dda	0.94601214
95	0x3fa5adf4	1.2943711
96	0x3fa25755	1.2682902
97	0x3e8e69e5	0.27815166
98	0x3f2b1763	0.6683256
99	0x3fe9584e	1.8230073
100	0x3efd866f	0.49516627
101	0xbedc978f	-0.4308438
102	0x3ea3b231	0.31971887
103	0x3f6a3db7	0.9150042
104	0x3f00a9fe	0.5025939
105	0x3e89049a	0.26761323
106	0x3ec36b20	0.38167667
107	0xbe0b1e1f	-0.13585709
108	0x3f4f6742	0.81016934
109	0x3f4723d7	0.7778906
110	0xc002a485	-2.0412915
111	0xc09bbe6c	-4.866995
112	0x4051b0b8	3.276411
113	0x3f61b8ac	0.8817241
114	0xbf8c5bfa	-1.0965569
115	0xbf344454	-0.7041676
116	0x3fb1b322	1.3882792
117	0x403755c9	2.864611
118	0x3fc6c80b	1.5529798
119	0x3ea8eef6	0.32994813
120	0x3ffb657c	1.9640346
121	0x3fdda270	1.7315197
122	0x400dfb62	2.2184682
123	0x3fc7eb65	1.5618712
124	0x3f74ceaa	0.95627844
125	0x3fa3cb29	1.2796375
126	0x3fe1e295	1.7647272
127	0xbf42dfc9	-0.7612272
128	0x3ffdba5a	1.9822495
129	0x3f4ea8e1	0.8072644
130	0x400e0ee3	2.2196586
131	0x3f5ef7ea	0.87097037
132	0x3f1667de	0.5875224
133	0x3fd72c5f	1.6810416
134	0x3eb4b3bb	0.35293373
135	0xbe620a1b	-0.22074167
136	0xbfc423af	-1.532339
137	0x3e93538f	0.28774688
138	0x40481a82	3.126618
139	0x3eb49382	0.3526879
140	0x3eab3fa6	0.33446997
141	0x3e2014df	0.15632962
142	0x3fa5313a	1.2905648
143	0x403d3072	2.9560819
144	0x3f3f630d	0.74760514
145	0x3ffb4b99	1.9632446
146	0x3ff827e8	1.9387178
147	0x40307395	2.7570546
148	0x40348a20	2.8209305
149	0x40622ab3	3.5338562
150	0x3f905329	1.1275378
151	0x3f8a094e	1.078409
152	0x3fdfb478	1.747695
153	0x3fa008f0	1.2502728
154	0x3fe8a546	1.8175437
155	0x400bf36d	2.1867325
156	0x401386fd	2.305114
157	0x3e4de4a3	0.20106749
158	0x3ee854f9	0.4537733
159	0x3e663fd6	0.22485289
160	0x3f4795e5	0.77963096
161	0x3fae772a	1.3630116
162	0x3f993da3	1.1971935
163	0x3f0819f0	0.5316458
164	0xbd3feb1e	-0.046855085
165	0x3e60a608	0.21938336
166	0x3f1d5b0f	0.6146707
167	0xbe4de69f	-0.20107506
168	0x3dead0f1	0.11465634
169	0x3fe987fb	1.8244623
170	0x3ef68e98	0.48155665
171	0x3fae681a	1.3625519
172	0x3fca02c9	1.57821
173	0x3f226f18	0.63450766
174	0x3f674406	0.9033817
175	0xbfdc5f37	-1.7216557
176	0x3fb4e53e	1.4132459
177	0x3f3595cd	0.709317
178	0xbe3312e2	-0.17487672
179	0x3d59f87c	0.05321549
180	0x3ef58286	0.47951144
181	0x3fd7d0e7	1.6860627
182	0x3fc7f01c	1.562015
183	0x3f9b9a8c	1.2156539
184	0x3f5b7f37	0.8574099
185	0x3fe0ac5e	1.7552602
186	0x3f264fa3	0.64965266
187	0x3e02d686	0.12777147
188	0xbfd3a8b7	-1.6535863
189	0xbe8dd770	-0.27703428
190	0x3ec771c0	0.38953972
191	0x3ebd4a2d	0.36970654
192	0x3f64eeea	0.89427054
193	0x3f681de8	0.90670633
194	0x3ffc4076	1.9707172
195	0x406b005c	3.671897
196	0x40038fcf	2.0556524
197	0x4026ac12	2.6042523
198	0x3fc30c28	1.5238085
199	0x3ff0a493	1.8800224
200	0x40270fc9	2.6103384
201	0x3fbfa656	1.4972637
202	0x40787f42	3.8827672
203	0x3f5546bd	0.83311063
204	0x3ff6bcb5	1.9276339
205	0x3f516e3d	0.81808835
206	0x3f5743e6	0.8408798
207	0x3f798396	0.9746641
208	0x3fbbec9c	1.4681582
209	0x3f7640ee	0.96192825
210	0x3f54e618	0.83163595
211	0xbe2df75e	-0.16988894
212	0x3ddb615f	0.107119314
213	0x3f0321fd	0.51223737
214	0x3e781ef5	0.24230559
215	0xbdf18662	-0.117932096
216	0x3f86e22e	1.0537775
217	0x3f1c3b3a	0.6102787
218	0x3f6ea459	0.93219525
219	0x3f6c3b62	0.9227811
220	0x3f36351c	0.7117479
221	0x3ff3d1b1	1.9048368
222	0x3f60107b	0.8752515
223	0x3f2988f6	0.6622461
224	0x3f8c501c	1.0961947
225	0x3f691f32	0.91063225
226	0x3e83e357	0.25759384
227	0xbf8778b7	-1.0583714
228	0x3f81b88f	1.0134448
229	0xbe68a4d4	-0.22719127
230	0x3e52a29f	0.20569848
231	0xbe42e799	-0.1903366
232	0x3fc5b381	1.5445405
233	0x401c2f25	2.4403775
234	0x3fedcaaa	1.8577473
235	0x3e19b268	0.15009463
236	0x3ef0d58a	0.47037917
237	0x3f803661	1.0016595
238	0x3f78c070	0.97168636
239	0xbcf80535	-0.03027592
240	0xbf8b3299	-1.0874816
241	0xbe267f30	-0.16259456
242	0x3f78b553	0.9715168
243	0x3f9d26a2	1.2277415
244	0x3ec62684	0.3870126
245	0xbf557ddb	-0.83395165
246	0x3f353a7b	0.7079236
247	0x4044df30	3.0761223
248	0xbdfb6048	-0.122742236
249	0x3f3a159f	0.7268924
250	0x3f36e325	0.71440345
251	0x3fcd6ea9	1.6049396
252	0x3f4bfa6c	0.7967899
253	0xbfbe1685	-1.4850622
254	0x3f82d28b	1.0220503
255	0xbed1f555	-0.41007486

bias f4 [128]
0	0xbe835662	-0.25651842
1	0xbff86418	-1.9405546
2	0xc03735fa	-2.8626695
3	0xc002573b	-2.0365741
4	0xbf1f3129	-0.6218439
5	0x4059895c	3.3990088
6	0x40107f81	2.2577822
7	0xbfc25167	-1.5181092
8	0x3fe24452	1.76771
9	0xc01a6f01	-2.4130251
10	0xc01ec074	-2.4804964
11	0xc0053ee0	-2.0819626
12	0xbfdc9891	-1.723406
13	0xbf627d9e	-0.88472927
14	0xbf46e3c9	-0.7769132
15	0xc0115ebd	-2.2714074
16	0xbffd37ce	-1.9782655
17	0xbe9ef048	-0.31042695
18	0xbfdb8ad7	-1.7151746
19	0xbfa69941	-1.3015519
20	0xbf8a50f6	-1.0805957
21	0xbfee9299	-1.8638488
22	0xbf45001d	-0.769533
23	0xbfcc3c19	-1.595584
24	0xbfe86119	-1.8154632
25	0xbfeeaa01	-1.8645631
26	0xc0197232	-2.397595
27	0xbfce5995	-1.6121088
28	0x3f67d41a	0.90558016
29	0xbf1a91a8	-0.60378504
30	0x3fe4ae30	1.7865658
31	0x4170e1fd	15.055173
32	0x4027ced8	2.6219997
33	0xbfe51232	-1.7896178
34	0xbff78af3	-1.9339279
35	0xbf97127e	-1.1802518
36	0xbf837ed7	-1.0273083
37	0xbf997b24	-1.1990705
38	0xbd70da6c	-0.058802053
39	0xc015f548	-2.3430958
40	0xbfff6bd4	-1.9954782
41	0xbff0c00b	-1.8808607
42	0xbfa4d6fa	-1.2878106
43	0xc00d8ee0	-2.2118454
44	0xc018f5b0	-2.3899956
45	0xbff8310e	-1.938997
46	0xbfdd4b8c	-1.728868
47	0xc0267eb5	-2.6014836
48	0x3db7cb5a	0.08974333
49	0xc04f6ba8	-3.2409458
50	0xbf9514d2	-1.1646979
51	0xc04adf97	-3.1698968
52	0x4017a3bb	2.3693683
53	0xbfd89dce	-1.6923158
54	0xc030d752	-2.763142
55	0xbfe07dbc	-1.7538371
56	0xbf8efaf0	-1.117033
57	0xc014ffbd	-2.328109
58	0xc018fe0b	-2.3905056
59	0xc0314df8	-2.7703838
60	0xc01a1a6c	-2.4078627
61	0xbfa9d992	-1.3269522
62	0xc0257396	-2.5851798
63	0xbf9aa853	-1.2082618
64	0x3fa9a2c0	1.3252792
65	0xbfe5f46e	-1.7965219
66	0xbfb205af	-1.3907984
67	0xc0141823	-2.3139732
68	0xbfe61955	-1.7976481
69	0x400bbba7	2.1833284
70	0xbed88fe4	-0.4229728
71	0xbfcaa239	-1.5830756
72	0xbf1ac05a	-0.60449755
73	0xc00d3287	-2.206209
74	0xc053659f	-3.3030775
75	0xc014f4f6	-2.3274512
76	0xbff859c0	-1.940239
77	0xc0442eef	-3.0653646
78	0xbf12ec14	-0.57391477
79	0xbe920609	-0.2852023
80	0xbfacc5ce	-1.3497865
81	0xc03d9ab3	-2.962567
82	0xbfcff6d3	-1.62472
83	0xbef4ef53	-0.4783884
84	0xbfaf1d32	-1.3680785
85	0xbf8f624f	-1.1201876
86	0xbf154ed8	-0.5832343
87	0xbfc666eb	-1.5500158
88	0xc02c6c72	-2.694119
89	0xbff84c0a	-1.9398205
90	0xc05634d0	-3.3469734
91	0xc00b96e9	-2.1810858
92	0xc0225230	-2.5362663
93	0xbfe9f355	-1.8277384
94	0x3f9ceb8f	1.2259387
95	0xc000459c	-2.0042486
96	0xbfcd457f	-1.6036834
97	0xc00a9edb	-2.1659458
98	0xc011e942	-2.279862
99	0xc004fb55	-2.07784
100	0xc045618c	-3.0840788
101	0x3fb9a7f8	1.4504385
102	0xbfbd9141	-1.4809953
103	0xbff579ad	-1.9177758
104	0xbff0f416	-1.8824489
105	0xc018cb6f	-2.3874166
106	0xbff7e236	-1.9365909
107	0xbfc74e95	-1.5570856
108	0xbfac1530	-1.3443966
109	0xc0314fe0	-2.7705002
110	0xc00790c3	-2.1182106
111	0xc013dfc7	-2.3105333
112	0xc00b2fc3	-2.1747901
113	0xbea9b532	-0.33146054
114	0xbfef43eb	-1.8692602
115	0xc0235132	-2.5518308
116	0xbf776492	-0.96637833
117	0xbfc1fac6	-1.5154655
118	0xc007e815	-2.1235402
119	0xc0516615	-3.2718556
120	0xbf96bcff	-1.1776427
121	0xc03ece47	-2.9813402
122	0xc02884df	-2.6331098
123	0x3fa0faf9	1.2576591
124	0xc00ee2af	-2.2325857
125	0xc0501d78	-3.2517986
126	0xbfc89d38	-1.5672979
127	0xbf021aa3	-0.50821894

weight f4 [128, 128]
0	0xbfe27b83	-1.7693943
1	0x4005b1da	2.0889802
2	0x3f659166	0.89674985
3	0x3ff47577	1.9098347
4	0x402de188	2.7168903
5	0xbf11b297	-0.5691313
6	0xbfe318e9	-1.7741977
7	0x3fbdbb9b	1.4822878
8	0xbefdf9aa	-0.4960454
9	0x3fb00608	1.375184
10	0x3f82f620	1.0231361
11	0xbe3c8a98	-0.18412244
12	0x3fc31e8f	1.5243701
13	0x3f8e2d79	1.1107627
14	0xbf8617ba	-1.0475991
15	0x40172e65	2.3622067
16	0x3f463e42	0.7743875
17	0xbf984523	-1.1896099
18	0xbe9fcd05	-0.31211105
19	0x3fb63666	1.4235351
20	0x3f82e30e	1.0225542
21	0x401d56bd	2.458419
22	0xbef140d0	-0.4711976
23	0x405968c9	3.3970206
24	0x3fb68196	1.4258296
25	0x40063c3a	2.097426
26	0x3fa490db	1.2856706
27	0xbf83f8fd	-1.031036
28	0xbf212f38	-0.62962675
29	0xbfb16a68	-1.3860598
30	0xbf8dad38	-1.1068487
31	0xbf0d86ad	-0.55283624
32	0xbf183ede	-0.5947093
33	0x3f1baf75	0.608146
34	0x40299309	2.6495993
35	0x3f89c565	1.0763365
36	0x402a407e	2.6601863
37	0xbf450903	-0.76966876
38	0x3f9cabea	1.2239964
39	0x3e06fe7b	0.13183014
40	0x3fabe562	1.3429377
41	0xc012e5a4	-2.2952662
42	0x40154965	2.3326046
43	0x3fc84e28	1.5648851
44	0x3f9c30ed	1.2202431
45	0x3f7786ff	0.9669036
46	0x400ebd1a	2.2302918
47	0x3f51b57b	0.8191754
48	0x3fa08271	1.2539808
49	0xbea362f2	-0.31911427
50	0x3ff0340b	1.8765882
51	0x3fbffe51	1.4999486
52	0xbec739c3	-0.38911256
53	0x3f8e42af	1.11141
54	0x3fbf3fdf	1.4941367
55	0x3d12c2d1	0.035830323
56	0x3dd5ad54	0.1043345
57	0x3f95b22c	1.1694999
58	0x3fa07bfb	1.2537836
59	0xbebb84a8	-0.36624646
60	0x3f9f40d1	1.2441655
61	0x3f8d1052	1.1020606
62	0xbfca08cd	-1.5783936
63	0x3ee84958	0.45368457
64	0xbe1ab0d9	-0.15106525
65	0x3fd110d1	1.6333257
66	0x3f908541	1.1290666
67	0x3fc7e433	1.5616516
68	0x3fc7ab21	1.5599099
69	0xbf8d0427	-1.1016892
70	0x3f2b5cf0	0.66938686
71	0x3f89c864	1.0764279
72	0x3fc898aa	1.5671589
73	0x3f1d99d4	0.6156285
74	0x3f8a7228	1.0816088
75	0x3fe57558	1.7926435
76	0x40323df5	2.7850316
77	0x3ed92448	0.42410493
78	0x401cfec1	2.453049
79	0xbf1bc336	-0.60844743
80	0x3e827529	0.2548001
81	0x3f3a67c0	0.7281456
82	0x3f3850eb	0.7199847
83	0x4057b95c	3.3706884
84	0xbf1ec3d3	-0.62017554
85	0x40066cc1	2.1003878
86	0xbf9f04c5	-1.242333
87	0x40180c41	2.375748
88	0x3f271b47	0.65275997
89	0x3f1b3cfc	0.6063993
90	0x3eef5950	0.46747828
91	0x3fece5c4	1.8507619
92	0x3fdd1ad9	1.7273818
93	0x3fdee3a5	1.7413222
94	0xbf467882	-0.7752763
95	0x400dd29f	2.2159803
96	0x4010916b	2.2588756
97	0x3ef6a86d	0.48175374
98	0x400108bd	2.0161583
99	0xbf094e57	-0.5363516
100	0x3eb93c28	0.36178708
101	0xbe4c4afd	-0.19950481
102	0xbe9d37d8	-0.30706668
103	0x3edcbb8b	0.43111834
104	0x3f4d87fb	0.80285615
105	0x3fb388f0	1.4026165
106	0x3fe23e9f	1.767536
107	0xbe97f91d	-0.29682246
108	0x3f3689b6	0.7130388
109	0x3e868bf3	0.26278648
110	0x3fe45a4f	1.784006
111	0x3d976e30	0.073940635
112	0x3fc778d2	1.5583746
113	0xbe62cf00	-0.22149277
114	0x3f4bf23c	0.79666495
115	0x3f25de20	0.6479206
116	0x3ff83c55	1.9393412
117	0x3fee64c9	1.8624507
118	0x40480a3e	3.1256251
119	0xbfa30b97	-1.2737912
120	0x3ff7a33d	1.9346691
121	0x3f6edfa6	0.9331001
122	0x404642b2	3.0978208
123	0xbfc45613	-1.5338768
124	0x3fba7bae	1.4568994
125	0x3fc27017	1.5190457
126	0xc00d9ede	-2.2128215
127	0xbed82ce3	-0.42221746
128	0x3f1c9cd7	0.6117682
129	0xbdb4b053	-0.08822694
130	0xbe02ea7b	-0.1278476
131	0x3f0dc994	0.5538571
132	0x3ed393cb	0.41323695
133	0xbe50c096	-0.20385966
134	0xbd55bf7f	-0.052184578
135	0xbdf18f7e	-0.11794947
136	0xbf2b55bc	-0.66927695
137	0xbee791ff	-0.45228574
138	0x3eacde89	0.3376353
139	0x3f60327a	0.8757702
140	0xbf46ea5d	-0.7770136
141	0x3e88ce54	0.26719916
142	0xbeac7d8c	-0.33689535
143	0x3eb2180c	0.3478397
144	0xbf37df06	-0.7182468
145	0xbefc0d21	-0.49228767
146	0xbe72087f	-0.23636054
147	0xbe78730d	-0.24262638
148	0x3ef5b12f	0.47986743
149	0xbdbf2612	-0.09333433
150	0xbdd95974	-0.10612765
151	0xbd119768	-0.035544783
152	0xbf11800f	-0.56836027
153	0xbecb965b	-0.3976315
154	0xbb89e991	-0.0042087515
155	0x3f03561a	0.51303256
156	0xbeb2500d	-0.348267
157	0x3f1bcaf6	0.6085657
158	0x3dabb38b	0.083838545
159	0xbf047584	-0.51741815
160	0xbdc3b3c3	-0.09555771
161	0x3f715f40	0.94285965
162	0x3f43bff5	0.7646478
163	0xbee0b343	-0.43886766
164	0xbe9f0d27	-0.31064722
165	0xbf70daec	-0.9408405
166	0x3e20c486	0.15699968
167	0xbd1b034b	-0.037844937
168	0x3ee225c5	0.4416944
169	0x3cd873b8	0.026422366
170	0x3f5179fb	0.8182675
171	0x3e7eaf4a	0.24871555
172	0xbe60b2a9	-0.21943153
173	0xbeab18d3	-0.33417377
174	0xbee894a7	-0.45425913
175	0xbeae02f5	-0.3398663
176	0x3f0e78f2	0.556533
177	0xbe0a0e3a	-0.1348199
178	0xbe35956d	-0.17732783
179	0xbdb1bfde	-0.08679174
180	0x3f356498	0.7085662
181	0xbeb669b9	-0.35627535
182	0xbf58fa2a	-0.8475672
183	0xbda9d27f	-0.08292102
184	0xbeb50bbc	-0.35360515
185	0xbf1b1f4b	-0.60594624
186	0xbf03facd	-0.51554567
187	0x3ba0a836	0.004902865
188	0xbdfe4184	-0.1241484
189	0xbea8ed2e	-0.32993454
190	0xbe042d93	-0.1290801
191	0x3d1511eb	0.03639404
192	0x3e191519	0.14949454
193	0xbf0d6d3d	-0.5524481
194	0xbe24adb0	-0.16081882
195	0xbf92bd7d	-1.1464077
196	0x3e8995a2	0.26871973
197	0xbf0ca36c	-0.5493686
198	0x3e340d67	0.17583238
199	0xbf5dd2e1	-0.866499
200	0xbeb6fe4a	-0.35740882
201	0x3dfa8dac	0.12234053
202	0xbdc5dead	-0.09661613
203	0xbea6d9e0	-0.325881
204	0xbb2dc991	-0.0026517848
205	0xbe27bb44	-0.1638003
206	0xbf33f298	-0.70292044
207	0xbdc005a4	-0.09376076
208	0xbec995e4	-0.3937217
209	0xbe809381	-0.25112537
210	0x3c81377d	0.01577353
211	0x3ea3b5fe	0.31974787
212	0xbe9b8fc8	-0.30383134
213	0xbd940279	-0.07227034
214	0x3eaa0d0d	0.33213082
215	0xbf050bb8	-0.51971006
216	0x3f0e68d7	0.5562872
217	0x3ef5253c	0.4787997
218	0xbee70d28	-0.45127225
219	0x3e48ca1d	0.1960835
220	0xbb7cbf52	-0.0038566184
221	0xbf14fe64	-0.5820067
222	0x3dbcb73b	0.09214636
223	0xbefdc682	-0.49565512
224	0xbfa74554	-1.3068032
225	0xbe9995f1	-0.2999721
226	0x3d7a8f2d	0.0611717
227	0x3f4a167e	0.7894057
228	0xbeb9d34f	-0.36294028
229	0x3dc93e52	0.0982634
230	0x3f437f6b	0.763663
231	0xbec95cf4	-0.3932873
232	0x3e5ddcdf	0.21666287
233	0x3eda5233	0.42640838
234	0x3d826251	0.063664086
235	0xbf71aaf0	-0.94401455
236	0xbf0bebfc	-0.5465696
237	0x3eb61be5	0.35568157
238	0x3e01b2c0	0.12665844
239	0xbef157fa	-0.47137433
240	0xbf33f601	-0.7029725
241	0x3e452fda	0.19256535
242	0xbed018ed	-0.40644017
243	0x3f304212	0.68850815
244	0xbd3e4355	-0.04645093
245	0xbe2f9120	-0.17145205
246	0xbeb55c85	-0.3542215
247	0x3f31ef67	0.69505924
248	0xbe9af106	-0.3026201
249	0xbd8da40f	-0.06916057
250	0xbf8db91f	-1.107212
251	0xbe079bc4	-0.13243014
252	0xbf590ef2	-0.8478843
253	0x3eb2c9c9	0.34919575
254	0x3e21cc35	0.15800555
255	0xbe5626e9	-0.2091328

bias f4 [128]
0	0xbfaecb47	-1.3655785
1	0x3e1bd4f2	0.15217951
2	0xbf51cb56	-0.8195089
3	0xbe8a6d9a	-0.27036744
4	0xbef5d73a	-0.48015767
5	0xbf034073	-0.51270217
6	0x3d740249	0.05957249
7	0xbde25537	-0.1105141
8	0xbf32695b	-0.6969201
9	0xbf654672	-0.89560616
10	0x3da91b1b	0.08257123
11	0xbeddb90e	-0.43305248
12	0xbe955387	-0.2916529
13	0xbde22f36	-0.11044161
14	0x3d531ed5	0.051543076
15	0xbec44288	-0.3833201
16	0xbe53a3f0	-0.20668006
17	0xbf03d39f	-0.51494783
18	0x3ddfb83b	0.10923811
19	0xbf04e0f0	-0.5190573
20	0xbef52fdc	-0.47888076
21	0xbecfd2b5	-0.40590444
22	0xbf107b51	-0.56438166
23	0xbeeede01	-0.4665375
24	0xbe9eb3e8	-0.30996633
25	0xbe5a87e0	-0.21340895
26	0xbc301163	-0.010746333
27	0xbe5267f9	-0.20547475
28	0xbef2e6bd	-0.47441664
29	0xbf0340a8	-0.5127053
30	0xbec953d4	-0.39321768
31	0xbd7d3a18	-0.06182298
32	0xbe43f48f	-0.1913626
33	0xbfacaf4e	-1.3490999
34	0xbe808bdd	-0.25106707
35	0xbed6e374	-0.41970408
36	0xbdcae12c	-0.099062294
37	0xbedbb5e4	-0.4291221
38	0xbea80ade	-0.3282079
39	0xbe3348b1	-0.17508198
40	0xbf0e2955	-0.5553182
41	0xbf640d14	-0.89082456
42	0x3c945a0d	0.018109346
43	0xbe3b8f2f	-0.18316339
44	0xbde0e4d7	-0.10981148
45	0x3d0dfdea	0.03466598
46	0xbfa8e10e	-1.3193681
47	0xbf2b73cf	-0.66973585
48	0xbf05d084	-0.52271295
49	0xbe897dfe	-0.26853937
50	0x3e9b2752	0.30303437
51	0xbd7fec14	-0.062481
52	0xbc46541a	-0.012105012
53	0xbf0f5af3	-0.5599815
54	0xc005f5ff	-2.0931394
55	0xbe7b37fc	-0.24533075
56	0xbedc5cf9	-0.43039683
57	0xbd9167c2	-0.07099868
58	0x3e0cc59b	0.13747256
59	0xbfabfffe	-1.3437498
60	0xbe3bd3d0	-0.18342519
61	0xbf21a1fa	-0.6313778
62	0xbf40777c	-0.7518232
63	0xbeeb6cf5	-0.45981565
64	0xbfb35eac	-1.4013267
65	0xbc9542ab	-0.018220266
66	0x3d0a6cc1	0.033795122
67	0xbf1a564e	-0.6028794
68	0x3f7f3a48	0.99698305
69	0xbeb32cc5	-0.34995094
70	0xbe8a16da	-0.2697056
71	0xbebe29a6	-0.3714115
72	0xbeb5ae11	-0.35484365
73	0xbe6662ea	-0.2249867
74	0xbeb300d0	-0.34961557
75	0xbf0b6df5	-0.54464656
76	0xbec0fc91	-0.37692693
77	0xbed7dfb1	-0.4216285
78	0xbf03dc55	-0.51508075
79	0x3dc728cb	0.097245775
80	0xbdb49d0f	-0.08819019
81	0xbe6735e4	-0.22579151
82	0xbf087175	-0.5329812
83	0x3e3aae9d	0.18230672
84	0xbeb8fdc3	-0.36131105
85	0xbe39f664	-0.18160397
86	0xbf166d8a	-0.58760893
87	0xbf124654	-0.5713856
88	0xbe97b811	-0.2963262
89	0xbdc8aab8	-0.09798187
90	0xbe9f6b87	-0.31136724
91	0x3ce0e77e	0.027454134
92	0x3d8c4fad	0.068511344
93	0xbddb6b33	-0.10713806
94	0xbf2f6f1b	-0.6852891
95	0xbe806cd9	-0.25083044
96	0xbea006ed	-0.31255284
97	0xbea97316	-0.33095616
98	0xc006edec	-2.1082716
99	0xbf5c1380	-0.85967255
100	0xbf00b0bc	-0.50269675
101	0xbfa40110	-1.2812824
102	0xbe922e72	-0.2855106
103	0xbecc25e4	-0.39872658
104	0xbf87c74f	-1.0607699
105	0xbf48ce1e	-0.7843951
106	0xbe498fc6	-0.19683751
107	0x3d19d2e0	0.03755462
108	0x3e9e305c	0.3089627
109	0xbe9d65e9	-0.30741814
110	0xbf6278e8	-0.8846574
111	0xbe8a9b6e	-0.27071708
112	0xbfbbdc0b	-1.4676527
113	0xbe885ff8	-0.26635718
114	0xbf32d994	-0.6986325
115	0xbd3f3881	-0.046684746
116	0xbeff203e	-0.49829286
117	0xbe2ff395	-0.17182763
118	0xbf191234	-0.597934
119	0xbec0c050	-0.37646723
120	0xbeb95501	-0.36197665
121	0xbed461ce	-0.4148087
122	0xbe799214	-0.2437213
123	0xbca64716	-0.020297568
124	0xbf11bba0	-0.5692692
125	0xbf971b96	-1.1805294
126	0xbf5cb642	-0.86215603
127	0xbea9b304	-0.3314439

weight f4 [6, 128]
0	0x3e3907fc	0.18069452
1	0xbd819d79	-0.06328864
2	0x3e9072ad	0.2821249
3	0x3f8097b5	1.0046297
4	0x3f13592f	0.5755796
5	0x3f1427d9	0.578733
6	0x3e63ca8d	0.22245236
7	0x3f0bf9d9	0.5467811
8	0x3f6791c7	0.90456814
9	0x3ea3dcc7	0.32004377
10	0xbb00c18a	-0.0019646608
11	0x3f6512cc	0.89481807
12	0x3ee2d18a	0.4430049
13	0xbf1cc74f	-0.6124162
14	0x3efe69c5	0.4969007
15	0x3f0cde5b	0.5502679
16	0xbed696ed	-0.41912022
17	0x3ecd33ec	0.40078676
18	0xbca77849	-0.020443099
19	0x3e9a46d3	0.3013216
20	0xbe39d9f7	-0.18149553
21	0x3e392bd1	0.18083121
22	0x3e5fa46c	0.21840066
23	0x3cb9f678	0.022700533
24	0x3f357266	0.70877683
25	0x3b2193ad	0.0024654672
26	0x3ebfe414	0.37478697
27	0x3df72907	0.12068372
28	0xbe55335c	-0.20820373
29	0x3e93ed24	0.2889186
30	0x3e52f9ee	0.20603153
31	0xbe895e9a	-0.26829988
32	0xbf3fdf64	-0.7495024
33	0xbdafe900	-0.08589363
34	0x3ec4c74c	0.384333
35	0x3f9f16c1	1.2428819
36	0x3f0ec49e	0.55768764
37	0xbb2dae36	-0.0026501543
38	0xbc4dcaa1	-0.0125605175
39	0xbf58f18c	-0.8474357
40	0x3c8867b3	0.01665101
41	0x3f0e13b9	0.55498844
42	0xbf31e118	-0.6948409
43	0xbe704596	-0.23464045
44	0x3f8f20db	1.1181902
45	0x3d16115f	0.03663766
46	0xbd85a554	-0.065256745
47	0x3e794e6e	0.24346325
48	0x3ec1d0cb	0.3785461
49	0x4001fb34	2.0309572
50	0x3cbc86ff	0.02301359
51	0x3ebaa24a	0.36451942
52	0xbd0f68fd	-0.035012234
53	0x3db9c04f	0.09069883
54	0xbe12b5c2	-0.14327148
55	0x3f8f7f3b	1.1210703
56	0x3d29aba9	0.041423474
57	0x3e91c609	0.284714
58	0x3e9412c2	0.2892056
59	0x3e0013fd	0.12507625
60	0xbecf5579	-0.40494898
61	0x3e2a2513	0.16615705
62	0x3f3c8abe	0.73649204
63	0x3f12818a	0.5722891
64	0x3e078799	0.1323532
65	0x3ebecada	0.37264138
66	0x3f52c54f	0.8233232
67	0x3f1b914b	0.60768574
68	0xbda057dd	-0.078292586
69	0x3e85d1b1	0.26136544
70	0x3e4044e3	0.18776278
71	0x3f93e746	1.1554954
72	0x3f316424	0.6929343
73	0x3f2e3ebe	0.68064487
74	0xbed531c5	-0.41639534
75	0x3f70848b	0.93952245
76	0x3edac5bf	0.42728993
77	0x3efd2a8c	0.49446523
78	0xbe866f24	-0.2625667
79	0xbe808502	-0.25101477
80	0xbeda6bf2	-0.4266048
81	0x3e9ac15c	0.30225646
82	0x3f94fdd4	1.1639962
83	0xbe8b2b09	-0.2718127
84	0x3f386044	0.7202189
85	0x3f49afe2	0.78784
86	0xbd1c9d7c	-0.038236126
87	0x3f081552	0.5315753
88	0xbf74144b	-0.95343465
89	0xbee16857	-0.44024917
90	0x3f3c8e90	0.73655033
91	0x3e518fc7	0.20465003
92	0x3ea847b6	0.3286721
93	0x3e9212b4	0.28529894
94	0xbcd08b55	-0.025457064
95	0x3ea67b04	0.32515728
96	0x3e8397f8	0.2570188
97	0x3ee5b6f5	0.44866148
98	0xbe0a5116	-0.13507494
99	0x3e932ee1	0.28746703
100	0x3eb6644d	0.35623398
101	0xbd192222	-0.037386067
102	0xbe915378	-0.28383994
103	0x3f06f217	0.5271315
104	0x3dd456f0	0.103681445
105	0x3e9e8d2f	0.3096709
106	0x3f0d43f5	0.5518182
107	0x3f4af6e6	0.7928299
108	0x3f702ba9	0.9381662
109	0x3d1d2f7b	0.03837536
110	0x3e5cffff	0.2158203
111	0x3e9aa5d5	0.30204645
112	0x3e8c463f	0.27397344
113	0x3e8e5bba	0.27804357
114	0x3d86a4cf	0.065744035
115	0xbe2bdf15	-0.16784318
116	0x3f1b2d09	0.60615593
117	0xbcc5dd9e	-0.024153527
118	0x3ec6e29c	0.38844764
119	0x3f4069c5	0.7516139
120	0xbe6cb52d	-0.23115988
121	0x3f6eb995	0.93251926
122	0x3e0535be	0.13008782
123	0xbe86f04a	-0.263552
124	0x3e8ed8e4	0.2789985
125	0x3e462d32	0.19353178
126	0xbdc8cec9	-0.09805066
127	0xbe9849b3	-0.29743728
128	0xbd17c71e	-0.037055127
129	0xbd15c51d	-0.036564935
130	0x3eb49508	0.35269952
131	0x3f607bc6	0.87688863
132	0xbf20395f	-0.6258754
133	0x3f1ac5a6	0.6045784
134	0xbcacd35e	-0.021096881
135	0x3edf0949	0.43561772
136	0x3f81550f	1.0104083
137	0x3dab87a4	0.08375481
138	0x3d0b68c7	0.03403547
139	0xbe03504c	-0.128236
140	0x3eaac87a	0.33356076
141	0xbf51214c	-0.8169143
142	0x3ec2e034	0.38061678
143	0xbe57ee1b	-0.21086924
144	0xbf3f1d2e	-0.746539
145	0x3e2eb8ba	0.17062655
146	0xbe85df30	-0.2614684
147	0x3e7a6a06	0.24454507
148	0x3f0ad032	0.5422393
149	0x3df3227e	0.11871813
150	0xbdfbbaba	-0.12291475
151	0x3f18d263	0.59696025
152	0x3f2274de	0.63459575
153	0xbbdbef26	-0.0067118583
154	0x3e9d8a87	0.3076975
155	0x3f81bb05	1.0135199
156	0x3e9af059	0.30261496
157	0x3e166f40	0.14690876
158	0x3ee4a12c	0.44654214
159	0xbee4d990	-0.44697237
160	0xbf95522e	-1.1665704
161	0xbdf8e541	-0.12153102
162	0xbf1f8461	-0.6231137
163	0x3f90a71f	1.1301001
164	0x3edecff9	0.43518046
165	0xbb9cde76	-0.0047872616
166	0xbd42f615	-0.047597963
167	0xbf813698	-1.0094786
168	0x3cc40198	0.023926541
169	0xbe802d2e	-0.2503447
170	0xbf4eb934	-0.8075135
171	0x3e8bd1b9	0.27308443
172	0x3f9b7196	1.2144039
173	0xbe81d798	-0.25359797
174	0xbc9b2496	-0.018938344
175	0xbe3aad3a	-0.18230143
176	0x3e3bbb86	0.18333253
177	0x3f9a44ac	1.2052207
178	0x3c930a7e	0.017949339
179	0xbe4cc1f3	-0.19995861
180	0xbe29af7f	-0.16570853
181	0x3eab3d75	0.33445325
182	0xbe26c5fe	-0.16286466
183	0x3f25b394	0.6472714
184	0x3d19b8f9	0.03752992
185	0xbf665bbe	-0.8998374
186	0x3e5d926d	0.21637888
187	0x3d182f64	0.03715457
188	0xbe23631d	-0.15955777
189	0x3e36fa34	0.17868882
190	0x3f8f710e	1.1206377
191	0x3e84f7a5	0.25970188
192	0x3dddcf1a	0.10830517
193	0x3e7900f2	0.24316767
194	0x3f1a8385	0.6035693
195	0x3f8c9b99	1.0984985
196	0x3ced2ba0	0.028951466
197	0xbe440684	-0.1914311
198	0x3e09a717	0.13442646
199	0x3f892944	1.0715718
200	0x3f81ad25	1.0130965
201	0x3eade3f2	0.3396297
202	0x3e94b1f6	0.29042023
203	0x3fb2e5df	1.3976401
204	0x3da1d8a0	0.07902646
205	0xbed73458	-0.42032123
206	0xbe8e5625	-0.27800098
207	0xbd46a23e	-0.04849457
208	0xbe4a04f3	-0.1972845
209	0x3e9f2830	0.31085348
210	0x3f9ee78e	1.2414415
211	0xbf6d6aa1	-0.9274083
212	0x3f3bca6e	0.7335576
213	0xbf1f79c0	-0.6229515
214	0xbe115387	-0.1419202
215	0x3f6c7703	0.923691
216	0xbf20c3a6	-0.62798536
217	0x3ebe1c6c	0.3713106
218	0x3f36bb2b	0.71379346
219	0x3eae0a6c	0.33992326
220	0xbf49e5ce	-0.7886628
221	0x3df9f773	0.122054
222	0xbcbcdf35	-0.023055652
223	0x3f4e2bde	0.80535686
224	0xbf03048c	-0.51178813
225	0x3e2b0606	0.16701517
226	0x3e6a302d	0.2286994
227	0xbd8453ab	-0.06461271
228	0xbe50ae6e	-0.2037904
229	0xbe06c590	-0.13161302
230	0xbf359e9d	-0.7094515
231	0x3d47f550	0.048817933
232	0x3d85019f	0.0649445
233	0x3ead65bc	0.3386668
234	0xbe304840	-0.17215061
235	0x3f9c2a7b	1.2200464
236	0x3f114010	0.56738377
237	0x3e1d7a2b	0.15378635
238	0x3e0f2bc2	0.13981536
239	0x3ee9c673	0.45659217
240	0x3dbfcd28	0.09365302
241	0x3f0aa229	0.54153687
242	0x3e00e667	0.12587892
243	0xbf06a289	-0.5259176
244	0x3ee396cd	0.4445099
245	0xbbcf3d53	-0.006324449
246	0x3ee34f3f	0.44396397
247	0x3db46909	0.08809096
248	0xbd9b374b	-0.07578906
249	0x3fa96a4f	1.3235568
250	0xbe74968f	-0.23885559
251	0xbdaad2c4	-0.083409816
252	0xbd012258	-0.031526893
253	0x3de252c8	0.110509455
254	0x3e91d992	0.28486305
255	0xbf242263	-0.6411497

bias f4 [6]
0	0x3ec433ea	0.38320857
1	0x3eca7f37	0.39550182
2	0x3ec8fe3b	0.39256462
3	0x3eb7fda0	0.35935688
4	0x3ebcf4ed	0.36905614
5	0x3ebed747	0.3727362
