DynaQ/V2_EpisilonBurstof1.0/modelDynaQV2.pt (torch, 80570 bytes, 6 tensors)

weight f4 [128, 13]
2.346039 0.8261485 0.7449491 0.17559206 1.3189837 1.2427194 0.37411112 -2.4480581
3.5126565 0.36622256 0.19063245 0.37987146 0.8443324 2.1238487 1.0183967 0.8349192
0.33422747 0.75310564 1.4320514 1.3796364 0.8994457 1.521764 0.73362935 0.8913324
0.35974723 0.9582146 3.1050968 1.9048336 1.9044814 2.1365511 1.819403 2.5461948
2.4975533 -0.3130858 2.5397987 0.22768767 2.3701098 2.0530736 -0.15618196 3.8156404
1.8294132 1.6810443 2.9153066 1.5325619 2.4813673 2.4528124 1.0666865 0.99113095
0.35555428 1.2988373 0.3200681 0.94702137 1.4528903 0.16549133 0.6442502 0.64175
0.5809683 0.44601068 0.41895217 0.105016455 0.723564 0.5818011 0.7668713 0.6286247
0.5863655 -3.3772852 -1.285674 -1.302299 -0.8461519 -0.9839544 -0.30485576 -0.5848145
-3.983743 -6.838731 0.081126034 -1.377367 -1.3895624 -1.0434461 -2.0029168 -1.8298273
-1.9050819 -2.0625296 -1.5224352 -1.5098238 -2.1525884 -10.323818 -2.8994527 -0.4939897
1.0451989 1.1757782 1.644145 3.208921 0.12902696 0.9002387 1.3994216 1.5970932
1.4277059 0.7726841 0.92043155 0.96793115 0.96361524 -0.5755255 0.26516238 0.7081821
0.354788 0.19355348 0.2313634 0.16767932 0.5983747 0.429858 -1.838109 -4.399965
2.9879735 1.1406324 -0.91887754 -0.7872112 1.8818624 3.3361752 1.8770083 0.9809521
2.1313233 1.8154349 2.397842 2.1820877 0.6749034 2.1249783 2.5741494 -1.036298
1.6854374 0.9780222 2.1491835 0.9532026 0.7892225 1.6044074 0.5462301 0.6422239
-0.30890444 0.18669759 3.285024 -0.05683455 -0.31193244 -0.0024221633 1.2073615 3.4530585
1.0086222 2.1301115 2.238128 3.3493433 2.8245318 2.9663117 1.6040262 1.3965226
1.8091489 1.5593616 2.487257 1.8730525 2.814765 0.47408158 1.321125 0.17426744
1.0645161 1.337938 1.3412551 -0.30643746 0.3713326 0.17572044 0.40661606 -1.0539436
0.010373214 1.6868587 0.17711765 1.4747403 0.7406753 0.77035254 0.8662033 -0.7382079
2.4332702 1.8696148 -0.91215384 0.44076422 -0.09158384 1.8009952 2.3249571 1.7154553
0.91662204 1.773371 1.2826375 0.48151183 -1.324499 0.22528084 0.62899476 0.9030959
0.71182704 0.19465052 1.549641 4.255912 2.290248 2.7497296 1.8888425 2.206252
2.9257288 2.096568 3.9190612 1.1342136 2.0218983 0.6114625 1.4384568 1.1581025
1.4681582 0.96192825 0.83163595 -0.16988894 0.107119314 0.51223737 0.24230559 -0.117932096
1.0537775 0.6102787 0.93219525 0.9227811 0.7117479 1.7123469 -0.0766885 0.10863473
0.1768111 0.42001355 0.22753286 -1.4428349 0.8220773 -0.13794592 0.31561244 -0.36018366
1.5306966 1.6663526 2.2620387 0.41826653 0.27771756 1.3968903 0.32966244 0.7053632
-0.86993754 0.16463037 0.35837084 1.0673575 0.26390594 -0.5013169 0.23011576 3.7642558
0.3968413 1.0850948 0.9088292 1.5372411 1.4185653 -1.0193022 0.8373897 -0.5079749
00000000: 8125 1640 787e 533f fcb4 3e3f 68ce 333e
00000010: 75d4 a83f 6e11 9f3f 7e8b bf3e fcac 1cc0
00000020: 5dcf 6040 8681 bb3e 2735 433e 837e c23e
00000030: 2b26 583f 23ed 0740 d35a 823f 44bd 553f
00000040: dd1f ab3e 88cb 403f 764d b73f ed97 b03f
00000050: 1342 663f 2ac9 c23f 22cf 3b3f 5c2e 643f
00000060: ca30 b83e 8d4d 753f e8b9 4640 96d1 f33f
00000070: 0cc6 f33f 41bd 0840 33e2 e83f dbf4 2240
00000080: ead7 1f40 c84c a0be 108c 2240 f526 693e
00000090: e1af 1740 8f65 0340 2aee 1fbe 7433 7440
000000a0: 362a ea3f 762c d73f 6294 3a40 fd2a c43f
000000b0: b9ce 1e40 e1fa 1c40 2f89 883f c2ba 7d3f
000000c0: 360b b63e 4d40 a63f f7df a33e fe6f 723f
000000d0: 4ff8 b93f 8f76 293e 95ed 243f ba49 243f
000000e0: 57ba 143f 835b e43e e680 d63e de12 d73d
000000f0: 7e3b 393f ebf0 143f ad51 443f 8ced 203f
00000100: 0d1c 163f 7125 58c0 f790 a4bf bcb1 a6bf
00000110: 699d 58bf 70e4 7bbf 0e16 9cbe 67b6 15bf
00000120: a5f5 7ec0 e2d6 dac0 6825 a63d 904d b0bf
00000130: 2edd b1bf a48f 85bf ca2f 00c0 c837 eabf
00000140: b9d9 f3bf 7c00 04c0 28df c2bf e841 c1bf
00000150: 02c4 09c0 5c2e 25c1 a290 39c0 38ec fcbe
00000160: 14c9 853f e67f 963f 5873 d23f f65e 4d40
00000170: a51f 043e 0b76 663f 3f20 b33f 8d6d cc3f
00000180: 11bf b63f a0ce 453f 67a1 6b3f 56ca 773f
00000190: 7daf 763f a455 13bf 5dc3 873e 6c4b 353f
000001a0: c6a6 b53e e232 463e 87ea 6c3e 21b4 2b3e
000001b0: 162f 193f 5916 dc3e 2847 ebbf 83cc 8cc0
000001c0: f53a 3f40 3e00 923f 8f3b 6bbf ac86 49bf
000001d0: dee0 f03f e583 5540 cf41 f03f ad1f 7b3f
000001e0: 9a67 0840 2c60 e83f 3e76 1940 53a7 0b40
000001f0: 78c6 2c3f a5ff 0740 ddbe 2440 6aa5 84bf
00000200: 6abc d73f aa5f 7a3f 398c 0940 1605 743f
00000210: 7c0a 4a3f 395d cd3f bcd5 0b3f c968 243f
00000220: b928 9ebe a72d 3f3e d53d 5240 58cb 68bd
00000230: 9cb5 9fbe 28bd 1ebb d28a 9a3f e9fe 5c40
00000240: 881a 813f bf53 0840 7d3d 0f40 a45b 5640
00000250: 21c5 3440 0dd8 3d40 bb50 cd3f 41c1 b23f
00000260: 3192 e73f 2999 c73f 382f 1f40 2fc0 ef3f
00000270: 1c25 3440 d2ba f23e a01a a93f 2a73 323e
00000280: 1042 883f 8d41 ab3f 3fae ab3f 5fe5 9cbe
00000290: 4e1f be3e 0ff0 333e fb2f d03e a0e7 86bf
000002a0: 6af4 293c fcea d73f 545e 353e 4ac4 bc3f
000002b0: e59c 3d3f d335 453f 80bf 5d3f 31fb 3cbf
000002c0: b3ba 1b40 8a4f ef3f ea82 69bf d9ab e13e
000002d0: 4f90 bbbd 0387 e63f 19cc 1440 0a94 db3f
000002e0: bea7 6a3f d2fd e23f 772d a43f b888 f63e
000002f0: 2f89 a9bf 05b0 663e cd05 213f 4b31 673f
00000300: 4c3a 363f 7752 473e a35a c63f 6e30 8840
00000310: 6c93 1240 92fb 2f40 97c5 f13f 3c33 0d40
00000320: 243f 3b40 2c2e 0640 e6d1 7a40 e92d 913f
00000330: c866 0140 ce88 1c3f 5a1f b83f b43c 943f
00000340: 9cec bb3f ee40 763f 18e6 543f 5ef7 2dbe
00000350: 5f61 db3d fd21 033f f51e 783e 6286 f1bd
00000360: 2ee2 863f 3a3b 1c3f 59a4 6e3f 623b 6c3f
00000370: 1c35 363f 2f2e db3f dc0e 9dbd e37b de3d
00000380: f80d 353e 040c d73e 60fe 683e d0ae b8bf
00000390: a873 523f b241 0dbe f497 a13e fe69 b8be
000003a0: deed c33f 0b4b d53f 3ec5 1040 0827 d63e
000003b0: ff30 8e3e 4dcd b23f 84c9 a83e af92 343f
000003c0: 3ab4 5ebf dd94 283e 627c b73e 2c9f 883f
000003d0: ae1e 873e 4e56 00bf 77a3 6b3e 91e9 7040
000003e0: c82e cb3e 63e4 8a3f 08a9 683f 51c4 c43f
000003f0: 8c93 b53f 7f78 82bf 2c5f 563f a50a 02bf

bias f4 [128]
-0.12998177 -1.9405546 -2.2295268 -2.36321 -0.6218439 3.7243433 2.354341 -1.9474397
1.9256544 -1.8289101 -2.2463043 -2.4063416 -2.1269712 -0.8485861 -0.6446435 -2.2300587
-1.9782655 -0.076508954 -1.5473659 -1.2410648 -1.423814 -1.7921523 -0.76725155 -1.535474
-1.9933687 -2.0211422 -2.5789907 -1.6159592 0.63107497 -1.5764284 2.1756206 16.11696
3.5186126 -1.0919852 -1.9490789 -1.3157067 -0.74152833 -1.2651141 -0.20229001 -2.4438167
-2.4236162 -2.0821736 -0.9486746 -2.484639 -2.0994132 -2.4484506 -1.9836677 -2.6014836
-0.050677024 -3.794784 -1.1960007 -3.2695024 2.2977486 -1.9711765 -3.173518 -1.336587
-1.117033 -2.869932 -2.8126123 -2.5916948 -2.8729448 -1.082488 -3.4867723 -1.1328427
1.3414166 -1.788724 -0.5624082 -2.7174475 -1.4594239 2.086853 -0.3990536 -1.5365704
-0.50333345 -2.5553591 -4.087839 -2.7439623 -2.0991526 -3.2070656 -0.30331638 -0.2598087
-1.3266364 -2.962567 -2.1887543 -1.3654121 -1.4873611 -0.79636806 -0.33027875 -1.6562763
-3.2208683 -2.6938937 -3.3820841 -2.0536668 -2.9057868 -2.070027 1.8265384 -2.7352653
-1.5224016 -2.5504696 -2.4251075 -2.6214483 -3.3192554 1.3313209 -1.1567079 -1.5766203
-1.7435666 -2.8620982 -1.9722933 -0.34399673 -1.8346182 -2.898594 -2.2858615 -2.3025472
-2.7312815 -0.4434757 -2.6383474 -2.5141604 -0.920636 -1.2738951 -1.9515281 -3.1831682
-1.2482533 -3.014 -2.507873 1.0947444 -2.0490315 -3.7846947 -1.5186434 -0.8035112
00000000: f119 05be 1864 f8bf 91b0 0ec0 d53e 17c0
00000010: 2931 1fbf a45b 6e40 86ad 1640 b445 f9bf
00000020: d87b f63f ba19 eabf 73c3 0fc0 8001 1ac0
00000030: 4c20 08c0 f03c 59bf 5b07 25bf 48b9 0ec0
00000040: ce37 fdbf bab0 9cbd 1610 c6bf 36db 9ebf
00000050: 8a3f b6bf 3f65 e5bf 996a 44bf 698a c4bf
00000060: b526 ffbf 655a 01c0 2f0e 25c0 c0d7 cebf
00000070: 218e 213f 68c8 c9bf 5e3d 0b40 89ef 8041
00000080: f330 6140 2cc6 8bbf 6b7b f9bf 1469 a8bf
00000090: cdd4 3dbf 42ef a1bf 1d25 4fbe 7e67 1cc0
000000a0: 871c 1bc0 5542 05c0 57dc 72bf 5304 1fc0
000000b0: c95c 06c0 6ab3 1cc0 d3e8 fdbf b57e 26c0
000000c0: b692 4fbd bedd 72c0 8d16 99bf 873f 51c0
000000d0: 500e 1340 834f fcbf eb1a 4bc0 4815 abbf
000000e0: f0fa 8ebf f7ac 37c0 d701 34c0 54de 25c0
000000f0: 54de 37c0 f78e 8abf 4727 5fc0 fd00 91bf
00000100: 8ab3 ab3f e8f4 e4bf fcf9 0fbf a9ea 2dc0
00000110: 67ce babf 008f 0540 c150 ccbe 57ae c4bf
00000120: 76da 00bf 018b 23c0 94cf 82c0 149d 2fc0
00000130: 8458 06c0 9040 4dc0 494c 9bbe a505 85be
00000140: 39cf a9bf b39a 3dc0 8d14 0cc0 d3c5 aebf
00000150: d961 bebf c7de 4bbf 4c1a a9be dd00 d4bf
00000160: b522 4ec0 c168 2cc0 1174 58c0 476f 03c0
00000170: 69f8 39c0 537b 04c0 03cc e93f 960e 2fc0
00000180: 0ede c2bf e53a 23c0 f634 1bc0 cfc5 27c0
00000190: ae6e 54c0 b968 aa3f 010f 94bf b2ce c9bf
000001a0: 312d dfbf 9e2c 37c0 1b74 fcbf 5720 b0be
000001b0: c5d4 eabf 9082 39c0 8e4b 12c0 ef5c 13c0
000001c0: 51cd 2ec0 3f0f e3be afda 28c0 01e8 20c0
000001d0: cdae 6bbf ff0e a3bf accb f9bf 07b9 4bc0
000001e0: c4c6 9fbf 60e5 40c0 fe80 20c0 9620 8c3f
000001f0: 5523 03c0 7038 72c0 e862 c2bf e9b2 4dbf

weight f4 [128, 128]
-1.7693943 2.0889802 0.89674985 1.9098347 2.7168903 -0.5691313 -1.7741977 1.4822878
-0.4960454 1.375184 1.0231361 -0.18412244 1.5243701 1.1107627 -1.0475991 2.3622067
0.7743875 -1.1896099 -0.31211105 1.4235351 1.0225542 2.458419 -0.4711976 3.3970206
1.4258296 2.097426 1.2856706 -1.031036 -0.62962675 -1.3860598 -1.1068487 -0.55283624
-0.5947093 0.608146 2.6495993 1.0763365 2.6601863 -0.76966876 1.2239964 0.13183014
1.3429377 -2.2952662 2.3326046 1.5648851 1.2202431 0.9669036 2.2302918 0.8191754
1.2539808 -0.31911427 1.8765882 1.4999486 -0.38911256 1.11141 1.4941367 0.035830323
0.1043345 1.1694999 1.2537836 -0.36624646 1.2441655 1.1020606 -1.5783936 0.45368457
-0.15106525 1.6333257 1.1290666 1.5616516 1.5599099 -1.1016892 0.66938686 1.0764279
1.5671589 0.6156285 1.0816088 1.7926435 2.7850316 0.42410493 2.453049 -0.60844743
0.2548001 0.7281456 0.7199847 3.3706884 -0.62017554 2.1003878 -1.242333 2.375748
0.65275997 0.6063993 0.46747828 1.8507619 1.7273818 1.7413222 -0.7752763 2.2159803
2.2588756 0.48175374 2.0161583 -0.5363516 0.36178708 -0.19950481 -0.30706668 0.43111834
0.80285615 1.4026165 1.767536 -0.29682246 0.7130388 0.26278648 1.784006 0.073940635
1.5583746 -0.22149277 0.79666495 0.6479206 1.9393412 1.8624507 3.1256251 -1.2737912
1.9346691 0.9331001 3.0978208 -1.5338768 1.4568994 1.5190457 -2.2128215 -0.42221746
0.6117682 -0.08822694 -0.1278476 0.5538571 0.41323695 -0.20385966 -0.052184578 -0.11794947
-0.66927695 -0.45228574 0.3376353 0.8757702 -0.7770136 0.26719916 -0.33689535 0.3478397
-0.7182468 -0.49228767 -0.23636054 -0.24262638 0.47986743 -0.09333433 -0.10612765 -0.035544783
-0.56836027 -0.3976315 -0.0042087515 0.51303256 -0.348267 0.6085657 0.083838545 -0.51741815
-0.09555771 0.94285965 0.7646478 -0.43886766 -0.31064722 -0.9408405 0.15699968 -0.037844937
0.4416944 0.026422366 0.8182675 0.24871555 -0.21943153 -0.33417377 -0.45425913 -0.3398663
0.556533 -0.1348199 -0.17732783 -0.08679174 0.7085662 -0.35627535 -0.8475672 -0.08292102
-0.35360515 -0.60594624 -0.51554567 0.004902865 -0.1241484 -0.32993454 -0.1290801 0.03639404
0.14949454 -0.5524481 -0.16081882 -1.1464077 0.26871973 -0.5493686 0.17583238 -0.866499
-0.35740882 0.12234053 -0.09661613 -0.325881 -0.0026517848 -0.1638003 -0.70292044 -0.09376076
-0.3937217 -0.25112537 0.01577353 0.31974787 -0.30383134 -0.07227034 0.33213082 -0.51971006
0.5562872 0.4787997 -0.45127225 0.1960835 -0.0038566184 -0.5820067 0.09214636 -0.49565512
-1.3068032 -0.2999721 0.0611717 0.7894057 -0.36294028 0.0982634 0.763663 -0.3932873
0.21666287 0.42640838 0.063664086 -0.94401455 -0.5465696 0.35568157 0.12665844 -0.47137433
-0.7029725 0.19256535 -0.40644017 0.68850815 -0.04645093 -0.17145205 -0.3542215 0.69505924
-0.3026201 -0.06916057 -1.107212 -0.13243014 -0.8478843 0.34919575 0.15800555 -0.2091328
00000000: 837b e2bf dab1 0540 6691 653f 7775 f43f
00000010: 88e1 2d40 97b2 11bf e918 e3bf 9bbb bd3f
00000020: aaf9 fdbe 0806 b03f 20f6 823f 988a 3cbe
00000030: 8f1e c33f 792d 8e3f ba17 86bf 652e 1740
00000040: 423e 463f 2345 98bf 05cd 9fbe 6636 b63f
00000050: 0ee3 823f bd56 1d40 d040 f1be c968 5940
00000060: 9681 b63f 3a3c 0640 db90 a43f fdf8 83bf
00000070: 382f 21bf 686a b1bf 38ad 8dbf ad86 0dbf
00000080: de3e 18bf 75af 1b3f 0993 2940 65c5 893f
00000090: 7e40 2a40 0309 45bf eaab 9c3f 7bfe 063e
000000a0: 62e5 ab3f a4e5 12c0 6549 1540 284e c83f
000000b0: ed30 9c3f ff86 773f 1abd 0e40 7bb5 513f
000000c0: 7182 a03f f262 a3be 0b34 f03f 51fe bf3f
000000d0: c339 c7be af42 8e3f df3f bf3f d1c2 123d
000000e0: 54ad d53d 2cb2 953f fb7b a03f a884 bbbe
000000f0: d140 9f3f 5210 8d3f cd08 cabf 5849 e83e
00000100: d9b0 1abe d110 d13f 4185 903f 33e4 c73f
00000110: 21ab c73f 2704 8dbf f05c 2b3f 64c8 893f
00000120: aa98 c83f d499 1d3f 2872 8a3f 5875 e53f
00000130: f53d 3240 4824 d93e c1fe 1c40 36c3 1bbf
00000140: 2975 823e c067 3a3f eb50 383f 5cb9 5740
00000150: d3c3 1ebf c16c 0640 c504 9fbf 410c 1840
00000160: 471b 273f fc3c 1b3f 5059 ef3e c4e5 ec3f
00000170: d91a dd3f a5e3 de3f 8278 46bf 9fd2 0d40
00000180: 6b91 1040 6da8 f63e bd08 0140 574e 09bf
00000190: 283c b93e fd4a 4cbe d837 9dbe 8bbb dc3e
000001a0: fb87 4d3f f088 b33f 9f3e e23f 1df9 97be
000001b0: b689 363f f38b 863e 4f5a e43f 306e 973d
000001c0: d278 c73f 00cf 62be 3cf2 4b3f 20de 253f
000001d0: 553c f83f c964 ee3f 3e0a 4840 970b a3bf
000001e0: 3da3 f73f a6df 6e3f b242 4640 1356 c4bf
000001f0: ae7b ba3f 1770 c23f de9e 0dc0 e32c d8be
00000200: d79c 1c3f 53b0 b4bd 7bea 02be 94c9 0d3f
00000210: cb93 d33e 96c0 50be 7fbf 55bd 7e8f f1bd
00000220: bc55 2bbf ff91 e7be 89de ac3e 7a32 603f
00000230: 5dea 46bf 54ce 883e 8c7d acbe 0c18 b23e
00000240: 06df 37bf 210d fcbe 7f08 72be 0d73 78be
00000250: 2fb1 f53e 1226 bfbd 7459 d9bd 6897 11bd
00000260: 0f80 11bf 5b96 cbbe 91e9 89bb 1a56 033f
00000270: 0d50 b2be f6ca 1b3f 8bb3 ab3d 8475 04bf
00000280: c3b3 c3bd 405f 713f f5bf 433f 43b3 e0be
00000290: 270d 9fbe ecda 70bf 86c4 203e 4b03 1bbd
000002a0: c525 e23e b873 d83c fb79 513f 4aaf 7e3e
000002b0: a9b2 60be d318 abbe a794 e8be f502 aebe
000002c0: f278 0e3f 3a0e 0abe 6d95 35be debf b1bd
000002d0: 9864 353f b969 b6be 2afa 58bf 7fd2 a9bd
000002e0: bc0b b5be 4b1f 1bbf cdfa 03bf 36a8 a03b
000002f0: 8441 febd 2eed a8be 932d 04be eb11 153d
00000300: 1915 193e 3d6d 0dbf b0ad 24be 7dbd 92bf
00000310: a295 893e 6ca3 0cbf 670d 343e e1d2 5dbf
00000320: 4afe b6be ac8d fa3d adde c5bd e0d9 a6be
00000330: 91c9 2dbb 44bb 27be 98f2 33bf a405 c0bd
00000340: e495 c9be 8193 80be 7d37 813c feb5 a33e
00000350: c88f 9bbe 7902 94bd 0d0d aa3e b80b 05bf
00000360: d768 0e3f 3c25 f53e 280d e7be 1dca 483e
00000370: 52bf 7cbb 64fe 14bf 3bb7 bc3d 82c6 fdbe
00000380: 5445 a7bf f195 99be 2d8f 7a3d 7e16 4a3f
00000390: 4fd3 b9be 523e c93d 6b7f 433f f45c c9be
000003a0: dfdc 5d3e 3352 da3e 5162 823d f0aa 71bf
000003b0: fceb 0bbf e51b b63e c0b2 013e fa57 f1be
000003c0: 01f6 33bf da2f 453e ed18 d0be 1242 303f
000003d0: 5543 3ebd 2091 2fbe 855c b5be 67ef 313f
000003e0: 06f1 9abe 0fa4 8dbd 1fb9 8dbf c49b 07be
000003f0: f20e 59bf c9c9 b23e 35cc 213e e926 56be

bias f4 [128]
-1.3655785 0.15217951 -0.8314846 -0.27036744 -0.48015767 -0.51270217 0.05957249 -0.12835403
-0.7096257 -0.89560616 0.08272118 -0.4414781 -0.2916529 -0.1323979 0.051543076 -0.3833201
-0.20668006 -0.51494783 0.10923811 -0.5190573 -0.47888076 -0.43832943 -0.56438166 -0.4665375
-0.31949028 -0.26112112 -0.010746333 -0.20547475 -0.45451707 -0.5127053 -0.4417582 -0.07446658
-0.1913626 -1.418155 -0.2637611 -0.41970408 -0.099062294 -0.32314828 -0.3282079 -0.17508198
-0.5592891 -0.95092803 0.018109346 -0.18316339 -0.10981148 0.03466598 -1.4757376 -0.66973585
-0.5363486 -0.26853937 -0.117198035 -0.062481 -0.012105012 -0.5599815 -2.1935663 -0.24533075
-0.45692205 -0.07099868 0.13747256 -1.4088094 -0.18964249 -0.60960793 -0.7613524 -0.47083423
-1.4775683 -0.018218232 0.033795122 -0.6028794 0.99698305 -0.34995094 -0.3078076 -0.3714115
-0.35484365 -0.2874496 -0.34961557 -0.54464656 -0.37692693 -0.43432942 -0.51508075 0.097245775
-0.08819019 -0.23214325 -0.57322353 0.18230672 -0.36130413 -0.18160397 -0.58760893 -0.5713856
-0.31547925 -0.10705412 -0.31136724 0.027454134 0.068511344 -0.10713806 -0.87784487 -0.2687688
-0.32206327 -0.33095616 -2.1343734 -0.9267906 -0.50269675 -1.3827127 -0.2855106 -0.39872658
-1.0607699 -0.80647063 -0.19683751 0.035290852 0.3089627 -0.3397333 -0.93859893 -0.27071708
-1.4846576 -0.26635718 -0.753363 -0.046684746 -0.49829286 -0.17182763 -0.597934 -0.37646723
-0.36197665 -0.44963026 -0.24683274 -0.043059822 -0.5823465 -1.264984 -0.8685086 -0.3461502
00000000: 47cb aebf f2d4 1b3e 2ddc 54bf 9a6d 8abe
00000010: 3ad7 f5be 7340 03bf 4902 743d 3d6f 03be
00000020: 08aa 35bf 7246 65bf b969 a93d 6b09 e2be
00000030: 8753 95be 5193 07be d51e 533d 8842 c4be
00000040: f0a3 53be 9fd3 03bf 3bb8 df3d f0e0 04bf
00000050: dc2f f5be b76c e0be 517b 10bf 01de eebe
00000060: 3b94 a3be abb1 85be 6311 30bc f967 52be
00000070: 76b6 e8be a840 03bf 212e e2be ef81 98bd
00000080: 8ff4 43be 1a86 b5bf b20b 87be 74e3 d6be
00000090: 2ce1 cabd b173 a5be de0a a8be b148 33be
000000a0: 922d 0fbf 0570 73bf 0d5a 943c 2f8f 3bbe
000000b0: d7e4 e0bd eafd 0d3d f8e4 bcbf cf73 2bbf
000000c0: 244e 09bf fe7d 89be 8605 f0bd 14ec 7fbd
000000d0: 1a54 46bc f35a 0fbf 6463 0cc0 fc37 7bbe
000000e0: b0f1 e9be c267 91bd 9bc5 0c3e de53 b4bf
000000f0: a431 42be 440f 1cbf fee7 42bf 2f11 f1be
00000100: f520 bdbf 673e 95bc c16c 0a3d 4e56 1abf
00000110: 483a 7f3f c52c b3be f598 9dbe a629 bebe
00000120: 11ae b5be 982c 93be d000 b3be f56d 0bbf
00000130: 91fc c0be 6d60 debe 55dc 03bf cb28 c73d
00000140: 0f9d b4bd f6b6 6dbe c7be 12bf 9dae 3a3e
00000150: dbfc b8be 64f6 39be 8a6d 16bf 5446 12bf
00000160: 7f86 a1be 313f dbbd 876b 9fbe 7ee7 e03c
00000170: ad4f 8c3d 336b dbbd 71ba 60bf 109c 89be
00000180: 7ae5 a4be 1673 a9be 9399 08c0 2642 6dbf
00000190: bcb0 00bf bbfc b0bf 722e 92be e425 ccbe
000001a0: 4fc7 87bf dc74 4ebf c68f 49be 248d 103d
000001b0: 5c30 9e3e 86f1 adbe 0548 70bf 6e9b 8abe
000001c0: 4309 bebf f85f 88be 66dc 40bf 8138 3fbd
000001d0: 3e20 ffbe 95f3 2fbe 3412 19bf 50c0 c0be
000001e0: 0155 b9be f035 e6be b9c1 7cbe 7f5f 30bd
000001f0: a914 15bf ffea a1bf 9456 5ebf 993a b1be

weight f4 [6, 128]
0.18069452 -0.06328864 0.2821249 1.0046297 0.5755796 0.578733 0.22245236 0.5467811
0.89503956 0.32004377 -0.0019646608 0.8948065 0.4430049 -0.6124162 0.4969007 0.5502679
-0.41912022 0.40078676 -0.020443099 0.3013216 -0.18149553 0.14395311 0.21840066 0.022700533
0.70877683 0.004215914 0.37478697 0.12068372 -0.20820373 0.2889186 0.20603153 -0.27147424
-0.7495024 -0.08589363 0.384333 1.2428819 0.55768764 0.03388578 -0.0125605175 -0.8474357
0.0039615887 0.55498844 -0.6948409 -0.23464045 1.1181902 0.03663766 -0.008208266 0.24346325
0.3785461 2.0309572 0.0009727379 0.36451942 -0.035012234 0.09069883 -0.14327148 1.1210703
0.038373735 0.284714 0.2892056 0.07156494 -0.40494898 0.16615705 0.73649204 0.5722891
0.09916686 0.37264138 0.8233232 0.60768574 -0.078292586 0.26136544 0.18776278 1.1554954
0.6929343 0.68064487 -0.41639534 0.93952245 0.42728993 0.49446523 -0.2625667 -0.25101477
-0.4266048 0.30225646 1.1608202 -0.2718127 0.7202189 0.78784 -0.038236126 0.5315753
-0.95343465 -0.44024917 0.73655033 0.20465003 0.3286721 0.28529894 -0.023998648 0.32515728
0.2570188 0.44866148 -0.13189854 0.28746703 0.35623398 -0.07746138 -0.28383994 0.5271315
0.103681445 0.3096709 0.5518182 0.7928299 0.9381662 0.03837536 0.16123119 0.30204645
0.27397344 0.27804357 0.065744035 -0.16784318 0.60615593 -0.024153527 0.38844764 0.7516139
-0.23115988 0.9229873 0.13008782 -0.263552 0.2789985 0.20522977 -0.09805066 -0.29743728
-0.037055127 -0.036564935 0.35269952 0.87688863 -0.6258754 0.6045784 -0.021096881 0.43561772
1.0072329 0.08375481 0.03403547 -0.11883245 0.33356076 -0.8169143 0.38061678 -0.21086924
-0.746539 0.17062655 -0.2614684 0.24454507 0.5422393 0.10494185 -0.12291475 0.59696025
0.6314207 -0.011690953 0.3076975 1.0135199 0.3057459 0.14690876 0.44654214 -0.4410947
-1.1665704 -0.10311339 -0.6231137 1.1301001 0.43518046 0.031760838 -0.047597963 -1.0094786
0.012314511 -0.2469792 -0.8075135 0.27308443 1.2144039 -0.25359797 -0.07438572 -0.18230143
0.16828342 1.2052207 -0.0011067992 -0.19995861 -0.16570853 0.33445325 -0.0648862 0.6472714
0.06324247 -0.8998374 0.21637888 0.01741493 -0.15955777 0.17868882 1.1206377 0.19645369
0.054416303 0.24632527 0.6035693 1.0984985 0.028951466 -0.1914311 0.13442646 1.0715718
1.0130965 0.3396297 0.29042023 1.3976401 0.07902646 -0.4104103 -0.27800098 -0.04849457
-0.1972845 0.31085348 1.2319419 -0.9274083 0.7335576 -0.6229515 -0.1419202 0.923691
-0.59892935 0.3713106 0.71379346 0.33992326 -0.7886628 0.122054 -0.02247259 0.80535686
-0.5024127 0.16701517 0.21893862 -0.05119128 -0.2037904 -0.0322033 -0.7094515 0.048817933
0.0649445 0.3386668 -0.17215061 1.2200464 0.56738377 0.1215348 0.13981536 0.45659217
0.078342974 0.54153687 0.12587892 -0.5259176 0.4445099 -0.006324449 0.44396397 0.08809096
-0.07578906 1.2852595 -0.23885559 -0.083409816 -0.037598748 0.101019286 0.28168675 -0.6411497
00000000: fc07 393e 799d 81bd ad72 903e b597 803f
00000010: 2f59 133f d927 143f 8dca 633e d9f9 0b3f
00000020: 5021 653f c7dc a33e 8ac1 00bb 0a12 653f
00000030: 8ad1 e23e 4fc7 1cbf c569 fe3e 5bde 0c3f
00000040: ed96 d6be ec33 cd3e 4978 a7bc d346 9a3e
00000050: f7d9 39be 7268 133e 6ca4 5f3e 78f6 b93c
00000060: 6672 353f a625 8a3b 14e4 bf3e 0729 f73d
00000070: 5c33 55be 24ed 933e eef9 523e acfe 8abe
00000080: 64df 3fbf 00e9 afbd 4cc7 c43e c116 9f3f
00000090: 9ec4 0e3f d1cb 0a3d a1ca 4dbc 8cf1 58bf
000000a0: 37d0 813b b913 0e3f 18e1 31bf 9645 70be
000000b0: db20 8f3f 5f11 163d f77b 06bc 6e4e 793e
000000c0: cbd0 c13e 34fb 0140 56ff 7e3a 4aa2 ba3e
000000d0: fd68 0fbd 4fc0 b93d c2b5 12be 3b7f 8f3f
000000e0: c72d 1d3d 09c6 913e c212 943e a490 923d
000000f0: 7955 cfbe 1325 2a3e be8a 3c3f 8a81 123f
00000100: ff17 cb3d daca be3e 4fc5 523f 4b91 1b3f
00000110: dd57 a0bd b1d1 853e e344 403e 46e7 933f
00000120: 2464 313f be3e 2e3f c531 d5be 8b84 703f
00000130: bfc5 da3e 8c2a fd3e 246f 86be 0285 80be
00000140: f26b dabe 5cc1 9a3e c295 943f 092b 8bbe
00000150: 4460 383f e2af 493f 7c9d 1cbd 5215 083f
00000160: 4b14 74bf 5768 e1be 908e 3c3f c78f 513e
00000170: b647 a83e b412 923e d098 c4bc 047b a63e
00000180: f897 833e f5b6 e53e 6910 07be e12e 933e
00000190: 4d64 b63e 12a4 9ebd 7853 91be 17f2 063f
000001a0: f056 d43d 2f8d 9e3e f543 0d3f e6f6 4a3f
000001b0: a92b 703f 7b2f 1d3d ca19 253e d5a5 9a3e
000001c0: 3f46 8c3e ba5b 8e3e cfa4 863d 15df 2bbe
000001d0: 092d 1b3f 9edd c5bc 9ce2 c63e c569 403f
000001e0: 2db5 6cbe e548 6c3f be35 053e 4af0 86be
000001f0: e4d8 8e3e c127 523e c9ce c8bd b349 98be
00000200: 1ec7 17bd 1dc5 15bd 0895 b43e c67b 603f
00000210: 5f39 20bf a6c5 1a3f 5ed3 acbc 4909 df3e
00000220: 02ed 803f a487 ab3d c768 0b3d 6d5e f3bd
00000230: 7ac8 aa3e 4c21 51bf 34e0 c23e 1bee 57be
00000240: 2e1d 3fbf bab8 2e3e 30df 85be 066a 7a3e
00000250: 32d0 0a3f c1eb d63d baba fbbd 63d2 183f
00000260: c9a4 213f 698b 3fbc 878a 9d3e 05bb 813f
00000270: ba8a 9c3e 406f 163e 2ca1 e43e 2ad7 e1be
00000280: 2e52 95bf 1d2d d3bd 6184 1fbf 1fa7 903f
00000290: f9cf de3e a717 023d 15f6 42bd 9836 81bf
000002a0: cec2 493c 1ee8 7cbe 34b9 4ebf b9d1 8b3e
000002b0: 9671 9b3f 98d7 81be 8a57 98bd 3aad 3abe
000002c0: 7d52 2c3e ac44 9a3f 0512 91ba f3c1 4cbe
000002d0: 7faf 29be 753d ab3e 0ee3 84bd 94b3 253f
000002e0: 4585 813d be5b 66bf 6d92 5d3e c1a9 8e3c
000002f0: 1d63 23be 34fa 363e 0e71 8f3f 282b 493e
00000300: a1e3 5e3d b13c 7c3e 8583 1a3f 999b 8c3f
00000310: a02b ed3c 8406 44be 17a7 093e 4429 893f
00000320: 25ad 813f f2e3 ad3e f6b1 943e dfe5 b23f
00000330: a0d8 a13d 4d21 d2be 2556 8ebe 3ea2 46bd
00000340: f304 4abe 3028 9f3e 46b0 9d3f a16a 6dbf
00000350: 6eca 3b3f c079 1fbf 8753 11be 0377 6c3f
00000360: 6f53 19bf 6c1c be3e 2bbb 363f 6c0a ae3e
00000370: cee5 49bf 73f7 f93d 7018 b8bc de2b 4e3f
00000380: 1e9e 00bf 0606 2b3e 7231 603e f3ad 51bd
00000390: 6eae 50be 9ce7 03bd 9d9e 35bf 50f5 473d
000003a0: 9f01 853d bc65 ad3e 4048 30be 7b2a 9c3f
000003b0: 1040 113f 3de7 f83d c22b 0f3e 73c6 e93e
000003c0: 4872 a03d 29a2 0a3f 67e6 003e 89a2 06bf
000003d0: cd96 e33e 533d cfbb 3f4f e33e 0969 b43d
000003e0: 4b37 9bbd 6283 a43f 8f96 74be c4d2 aabd
000003f0: 2501 1abd 33e3 ce3d 3f39 903e 6322 24bf

bias f4 [6]
0.41495988 0.42701894 0.39569032 0.4129064 0.4136933 0.38081795
00000000: 9f75 d43e 3aa2 da3e ec97 ca3e 7868 d33e
00000010: 9ccf d33e 92fa c23e
