DynaQ/model.pt (torch, 80180 bytes, 6 tensors)

weight f4 [128, 13]
0	0x38db36f7	0.00010452972
1	0xbe625404	-0.22102362
2	0xbc0f9c7e	-0.008765338
3	0xbe746935	-0.23868258
4	0x3d5807fd	0.052741993
5	0x3d9ef917	0.07762354
6	0xbe5735ce	-0.21016619
7	0xbe3560b8	-0.17712677
8	0x3e25b3af	0.16181825
9	0x3e34b3ef	0.17646764
10	0xbc99aa5f	-0.018757997
11	0xbe3c32ee	-0.18378803
12	0x3d268784	0.04065658
13	0x3c3bad23	0.011454853
14	0xbe190c76	-0.1494616
15	0xbe88cc15	-0.26718202
16	0x3dfb22f7	0.122625284
17	0x3ca932c2	0.020654086
18	0xbd65c0bb	-0.056092005
19	0xbe376317	-0.17908894
20	0xbe835330	-0.25649405
21	0xbcf224d6	-0.02955858
22	0x3e4ee479	0.20204343
23	0xbdd10039	-0.102051206
24	0x3d13d05a	0.03608737
25	0xbe890ad3	-0.2676607
26	0x3d2d92f5	0.042376477
27	0x3dc2a43a	0.0950398
28	0xbd7c1ae9	-0.0615491
29	0x3d26b58c	0.04070048
30	0x3d6e4a2d	0.05817621
31	0x3e5fbeec	0.21850175
32	0xbe3fa090	-0.18713593
33	0xbe95df85	-0.29272094
34	0x3d03a5a7	0.0321404
35	0xbd67ef4d	-0.0566247
36	0x3e986762	0.29766375
37	0x3e849b86	0.25899905
38	0x3e9a42bb	0.30129036
39	0xbe00c43e	-0.1257486
40	0xbd9a1fa4	-0.07525566
41	0x3dd90d19	0.10598201
42	0xbe457fb2	-0.19286993
43	0xbccf725a	-0.025323082
44	0x3d84d325	0.06485585
45	0xbd861cc0	-0.065484524
46	0xbf024856	-0.50891626
47	0x3e9b175e	0.30291265
48	0xbe0dd757	-0.13851677
49	0x3e525f01	0.20544054
50	0x3d10c37a	0.03534267
51	0x3d5bb041	0.053634886
52	0xbe382c35	-0.17985614
53	0x3e8b855d	0.27250186
54	0xbe2224a9	-0.15834297
55	0xbd80384f	-0.0626074
56	0xbe9baaf0	-0.30403852
57	0x3e91fd0a	0.28513366
58	0xbd43130a	-0.04762558
59	0x3e6165cc	0.22011489
60	0x3cf26b83	0.029592281
61	0xbe917694	-0.2841078
62	0x3ea99cfe	0.33127588
63	0x3e5de41a	0.21669045
64	0x3e9e8579	0.30961207
65	0x3e628988	0.22122777
66	0xbdfe1702	-0.12406732
67	0x3e581b8e	0.21104261
68	0x3cb87030	0.022514433
69	0xbe4e2c6e	-0.20134136
70	0xbe8fdfee	-0.28100532
71	0xbde6444b	-0.112434946
72	0x3e9af828	0.30267453
73	0xbe4650ee	-0.1936681
74	0x3e461f97	0.19347988
75	0x3e31184e	0.17294428
76	0xbe56ace5	-0.20964392
77	0xbc5dcce3	-0.013537618
78	0xbe145035	-0.14483722
79	0x3e62fff0	0.22167945
80	0xbc9c1d9e	-0.019057091
81	0x3e2e2015	0.17004426
82	0x3ded3fed	0.115844585
83	0xbe25e3bd	-0.16200157
84	0x3edcd175	0.43128553
85	0x3dc2b3bd	0.095069386
86	0xbe7645f9	-0.2405013
87	0xbccc999d	-0.024975592
88	0xbe07ef08	-0.13274777
89	0x3dd254df	0.10270094
90	0xbbc96731	-0.0061463346
91	0x3cd4d7c5	0.025981793
92	0x3e921cc3	0.28537568
93	0x3db73368	0.08945352
94	0x3cd64a40	0.026158452
95	0x3e4299fc	0.19004053
96	0xbdf42db4	-0.1192278
97	0x3eb77275	0.3582951
98	0xbe7305f6	-0.23732743
99	0x3e137b4f	0.14402507
100	0x3d53f9dc	0.051751956
101	0x3e19d3cf	0.15022205
102	0xbe09b599	-0.1344818
103	0xbe4543d0	-0.1926415
104	0x3cc02bf8	0.023458466
105	0xbd2de044	-0.042450204
106	0xbdf4e426	-0.11957578
107	0x3e1161ee	0.14197513
108	0x3d600d09	0.05469993
109	0xbe5e26e9	-0.2169453
110	0xbe529153	-0.2056325
111	0x3e0ad7e0	0.13558912
112	0xbd2e0dcc	-0.042493626
113	0xbd872f44	-0.06600812
114	0x3e866ecc	0.26256406
115	0x3d8103eb	0.062995754
116	0xbc863214	-0.016381301
117	0xbe300ac4	-0.17191607
118	0x3e6fb7d8	0.23409975
119	0xbb227e29	-0.0024794436
120	0xbe4f4c1c	-0.20243877
121	0xbd0b7db4	-0.034055427
122	0xbe8620ae	-0.26196808
123	0x3e13b055	0.14422734
124	0x3e2ad624	0.1668325
125	0x3deea33d	0.11652229
126	0x3e38d9ab	0.18051784
127	0xbe177a61	-0.14792778
128	0x3d66dafd	0.056361187
129	0x3e8cc3c8	0.2749312
130	0x3dd1f9a9	0.10252697
131	0x3e389898	0.1802696
132	0xbe4cc873	-0.1999834
133	0x3e12e3dc	0.14344734
134	0x3e3d9585	0.18514068
135	0x3dff5fbb	0.12469431
136	0xbe2cc7e8	-0.16873133
137	0xbe84d180	-0.25941086
138	0x3f0e71f7	0.55642647
139	0xbd899a10	-0.06718838
140	0xbc844953	-0.016148245
141	0xbbb0ee20	-0.0053994805
142	0xbdb6f5c9	-0.089335985
143	0x3de7a3e5	0.11310557
144	0xbdd8c147	-0.1058374
145	0x3e55f778	0.20895183
146	0xbd52f6da	-0.051504947
147	0xbd21612b	-0.039399307
148	0x3e6d77dd	0.23190255
149	0x3e892825	0.2678844
150	0xbe05845a	-0.1303877
151	0x3dfcec04	0.12349704
152	0x3dafb559	0.08579511
153	0x3e47f284	0.19526106
154	0xbe70ff5f	-0.23534916
155	0xbe8a5656	-0.27018994
156	0xbd18e9d8	-0.037332386
157	0xbd522a63	-0.051309954
158	0x3d9ccd95	0.07656399
159	0xbe6d9246	-0.2320033
160	0x3d4eac98	0.050457567
161	0x3e2ef3b5	0.17085154
162	0xbd78370b	-0.060599368
163	0xbc5396f4	-0.012914408
164	0x3e12cdd3	0.14336328
165	0xbd224037	-0.03961202
166	0x3e464f88	0.19366276
167	0xbe4c8703	-0.19973378
168	0x3eaa62f2	0.33278614
169	0xbe8dda70	-0.27705717
170	0x3d474c69	0.048656855
171	0xbd19aa47	-0.037515905
172	0xbdbde7a6	-0.09272699
173	0xbe8e86c7	-0.27837202
174	0xbdcc62f2	-0.0997981
175	0x3e1dc5a4	0.15407425
176	0xbe5a33cf	-0.21308826
177	0x3e6aeb2e	0.22941276
178	0x3e9fac1d	0.31186
179	0x3e4dd85d	0.20102067
180	0x3e6bca3b	0.23026364
181	0xbe820170	-0.25391722
182	0xbe05b7f1	-0.1305845
183	0x3d26aa4e	0.04068976
184	0xbe2ab3c2	-0.16670135
185	0xbe2b5ec9	-0.16735376
186	0xbe43a017	-0.19104038
187	0x3e39a815	0.18130524
188	0x3e074d53	0.1321309
189	0xbecf8686	-0.4053232
190	0x3e3fd9db	0.18735449
191	0xbecd51d7	-0.401015
192	0xbd8ea1f1	-0.069644816
193	0xbdd0ab4f	-0.101889245
194	0x3e92864c	0.28618085
195	0x3e37e880	0.17959785
196	0x3e7845b5	0.24245341
197	0xbe1b1724	-0.15145546
198	0xbdb8db4c	-0.090262026
199	0x3e5fe06f	0.21862958
200	0x3e0a412a	0.1350142
201	0xbd81d713	-0.0633985
202	0x3dfb011d	0.12256072
203	0xbec0cefc	-0.37657917
204	0xbde5b05e	-0.1121528
205	0x3e0ea428	0.13929808
206	0x3e11210e	0.14172766
207	0x3e073914	0.13205367
208	0x3e960ebf	0.29308125
209	0x3dfdf946	0.12401061
210	0xbdce0550	-0.10059607
211	0xbe8b6739	-0.2722719
212	0x3e90b811	0.28265432
213	0x3e3f7532	0.1869705
214	0xbde40db4	-0.11135426
215	0x3e1642cd	0.1467392
216	0xbe9bf7cf	-0.304625
217	0x3e33ddd5	0.17565091
218	0x3e0f92d6	0.14020857
219	0xbe84e342	-0.25954634
220	0xba1863c0	-0.0005813204
221	0x3ca4bcab	0.020109495
222	0x3e593f9b	0.2121567
223	0x3ca81db8	0.020521984
224	0x3d0ea331	0.0348236
225	0x3e623e77	0.22094141
226	0xbd86eacb	-0.06587752
227	0x3db0aa58	0.086262405
228	0x3e951a40	0.2912159
229	0x3eb45924	0.3522426
230	0x3e6475d7	0.22310577
231	0xbe627719	-0.22115745
232	0xbdbde608	-0.092723906
233	0xbd2b5f0c	-0.04183869
234	0x3e6e9f17	0.23302875
235	0xbe247d74	-0.16063482
236	0xbe519a47	-0.20469008
237	0x3d969c35	0.07354013
238	0x3e85f5bb	0.2616404
239	0xbe92c8cd	-0.28668824
240	0xbd9fbbbf	-0.077994816
241	0xbd2fd6dc	-0.042929515
242	0xbd5f71b6	-0.054551803
243	0xbe4b02d5	-0.19825299
244	0x3e912664	0.28349602
245	0x3e3fdff9	0.18737783
246	0xbdaaa2c0	-0.08331823
247	0x3d8532ec	0.06503853
248	0xbb09a236	-0.0021001226
249	0xbda9a40b	-0.08283242
250	0x3e19087e	0.14944646
251	0x3e5e7146	0.21722898
252	0xbe0fc73a	-0.14040843
253	0xbe7d2b42	-0.24723533
254	0x3e47aff9	0.19500722
255	0x3d6b36d4	0.057425335

bias f4 [128]
0	0x3c837ef3	0.016051745
1	0xbe71094b	-0.23538701
2	0xbe3b1aab	-0.18271892
3	0x3d716600	0.058935165
4	0xbe63f6c2	-0.222621
5	0xbe1a4213	-0.15064268
6	0xbe7d1ace	-0.24717256
7	0xbe1ceaa4	-0.15323883
8	0xbdb894aa	-0.090127304
9	0xbe296b2f	-0.16544794
10	0x3ca98da2	0.020697419
11	0x3e2931c1	0.16522886
12	0x3e01a129	0.12659134
13	0xbe6c7eb8	-0.23095214
14	0x3e3946dd	0.18093438
15	0x3d844411	0.06458295
16	0xbdb4fc08	-0.08837134
17	0x3d635ec0	0.055510283
18	0x3d386be8	0.045024782
19	0xbdd431f6	-0.10361092
20	0xbe7bd587	-0.24593173
21	0x3e0a8633	0.13527755
22	0xbdc4e723	-0.09614398
23	0xbe354452	-0.17701843
24	0x3d585b09	0.052821193
25	0xbe2c1921	-0.16806461
26	0xbe33df93	-0.17565756
27	0x3d9fc5f7	0.07801431
28	0x3db59675	0.08866588
29	0xbc99741a	-0.01873212
30	0x3db6629a	0.089055255
31	0x3e1d93f4	0.15388471
32	0x3e12bdda	0.14330235
33	0x3e87ef6a	0.26549846
34	0xbd31f9e2	-0.043451197
35	0xbe62dba5	-0.221541
36	0x3e915eb7	0.28392574
37	0xbdb75019	-0.08950824
38	0x3e6a6a12	0.22892025
39	0x3df597fd	0.1199188
40	0x3e40a145	0.1881152
41	0xbc9bc323	-0.019013947
42	0xbe9116c7	-0.2833769
43	0x3e210881	0.157259
44	0xbe2b60c2	-0.16736129
45	0xbd61a3b2	-0.055087753
46	0x3e6aba70	0.22922683
47	0xbea20b9d	-0.31649485
48	0xbdcae956	-0.099077865
49	0xbe90f7ee	-0.28314155
50	0x3e5db6ca	0.2165176
51	0x3d80e8d0	0.062944055
52	0x3e700596	0.23439631
53	0x3e561e6f	0.20910047
54	0xbde6323c	-0.1124005
55	0x3d6d9cf3	0.058011007
56	0x3d8e1f8f	0.06939613
57	0xbe7005c7	-0.23439704
58	0xbda509aa	-0.08058484
59	0xbd3553e3	-0.044269454
60	0x3deb44e6	0.11487751
61	0x3e296537	0.16542517
62	0x3e34d7e5	0.17660482
63	0xbd9823f5	-0.07428733
64	0x3d9029a4	0.07039192
65	0x3da07a62	0.07835843
66	0x3e15e0bc	0.1463651
67	0x3e646fff	0.22308348
68	0xbcd86e80	-0.026419878
69	0x3b29e250	0.0025922246
70	0xbe6c62d3	-0.23084573
71	0x3e5be438	0.21473777
72	0x3d9ddd00	0.07708168
73	0x3e4cd91f	0.200047
74	0xbe82aff3	-0.25524864
75	0x3e474db1	0.1946323
76	0xbe40e665	-0.18837889
77	0x3e3f8f97	0.18707119
78	0xbe85d429	-0.26138428
79	0xbe09a311	-0.13441111
80	0x3d96619e	0.07342838
81	0x3e2be1d3	0.16785364
82	0x3e25f3f1	0.16206338
83	0xbd282fe7	-0.04106131
84	0x3cb2751e	0.021784361
85	0x3d86527c	0.065587014
86	0xbe21d7b1	-0.15804936
87	0xbe6fb5d3	-0.23409204
88	0x3ddfd227	0.10928755
89	0x3df4ae46	0.119473025
90	0xbd300f39	-0.042983267
91	0x3e15f95b	0.14645903
92	0xbc43bd97	-0.011947057
93	0x3e3cd440	0.18440342
94	0x3d329e87	0.043608215
95	0xbe9882da	-0.29787332
96	0x3e1fe45d	0.15614457
97	0x3e6898ea	0.22714582
98	0xbc5bb8d9	-0.01341077
99	0xbe178808	-0.14797986
100	0x3e52e0b0	0.20593524
101	0xbd4c13df	-0.049823638
102	0xbd1ecec2	-0.0387714
103	0xba9a5a2a	-0.0011776139
104	0x3e2d0abd	0.16898628
105	0xbd0720b4	-0.032990173
106	0xbe23a899	-0.15982284
107	0xbe32b765	-0.17452772
108	0x3e27adfa	0.1637496
109	0x3e6604b4	0.22462732
110	0x3d999954	0.07499948
111	0x3d274e06	0.040845893
112	0x3e78624b	0.24256246
113	0x3e702097	0.23449932
114	0xbe22deda	-0.15905324
115	0xbe6453bb	-0.22297566
116	0x3e8f8d7c	0.28037632
117	0xbd5a022d	-0.05322473
118	0xbe0df51c	-0.13863033
119	0xbe9e9aa1	-0.30977347
120	0x3df1fd94	0.11815944
121	0x3e85ff50	0.2617135
122	0xbe40b2ad	-0.1881816
123	0xbc59b4c1	-0.013287724
124	0x3e3f277f	0.1866741
125	0xbde53973	-0.11192598
126	0xbe62e799	-0.2215866
127	0x3e73dd43	0.23814873

weight f4 [128, 128]
0	0x3c776f1d	0.015102175
1	0x3d98fdb5	0.07470266
2	0x3d4f1671	0.05055851
3	0x3e355daf	0.17711519
4	0xbbed7c4c	-0.0072474834
5	0x3e6df532	0.23238066
6	0xbda48214	-0.08032623
7	0xbc8f2bd4	-0.017476954
8	0x3dda1dfc	0.1065025
9	0x3d63b6de	0.055594318
10	0x3e07d52e	0.13264915
11	0xbc079bad	-0.008276862
12	0xba3379b1	-0.00068464415
13	0x3c53cb8d	0.012926948
14	0x3e351922	0.17685369
15	0x3d5ff8e0	0.054680705
16	0xbd76e767	-0.060279276
17	0x3d13a2c9	0.036043916
18	0x3d51604b	0.051117223
19	0xbdae679d	-0.085158564
20	0x3df6da37	0.1205334
21	0xbd81f303	-0.06345179
22	0x3cda0418	0.02661328
23	0x3e1391a8	0.14411032
24	0x3e2e9055	0.17047246
25	0x3d7dc111	0.0619517
26	0x3e0ea586	0.1393033
27	0x3db70d06	0.08938031
28	0x3d12e958	0.035867065
29	0xbd6e2c53	-0.05814774
30	0x3d9f4860	0.07777476
31	0x3c15973b	0.009130294
32	0xbdd02766	-0.10163765
33	0xbdbe3ef3	-0.0928935
34	0x3e0731c5	0.1320258
35	0x3da685b7	0.08130973
36	0x3d73fd85	0.059567947
37	0xbcab636a	-0.020921428
38	0xbdcf0d89	-0.101100035
39	0x3e04ed27	0.12981091
40	0x3b9d5207	0.004801038
41	0xbca93438	-0.020654783
42	0x3dfa8bb6	0.12233679
43	0x3d9819c3	0.07426789
44	0xbd9e3800	-0.07725525
45	0x3d296b7a	0.041362263
46	0x3da14450	0.07874358
47	0xbca4f632	-0.020136926
48	0xbcee1a24	-0.0290652
49	0x3dae1ee2	0.08501984
50	0xbcfdd3df	-0.030984817
51	0x3c99afb8	0.018760547
52	0x3b04bb80	0.002025336
53	0x3df9ed24	0.12203434
54	0xbce954d8	-0.02848284
55	0xbc4af977	-0.012388579
56	0xbe00a60e	-0.12563345
57	0xbd303fa6	-0.04302945
58	0xbd6f4e6c	-0.0584244
59	0xbda23271	-0.07919777
60	0x3cff1f4c	0.031142853
61	0x3dfd474a	0.12367113
62	0x3d51d8af	0.051232036
63	0x3cb870f0	0.02251479
64	0xbba41915	-0.005007873
65	0x3a686a84	0.000886597
66	0x3d5eded9	0.054411743
67	0x3c6c05aa	0.014405647
68	0x3e2653a9	0.16242851
69	0xbd57ac8c	-0.052654788
70	0x3bb165a1	0.0054137264
71	0x3da16e18	0.07882327
72	0xbd9fd217	-0.07803743
73	0x3da3fb97	0.08006971
74	0x3df2cabc	0.11855075
75	0x3ddccf7f	0.10781764
76	0xbd9a3101	-0.07528878
77	0x3e1a7aa1	0.15085842
78	0x3d52974e	0.051413827
79	0x3db4a886	0.08821206
80	0x3d131243	0.035906088
81	0xbdf787f2	-0.120864764
82	0x3dc4f389	0.09616763
83	0xba57dd25	-0.0008234552
84	0x3d9d31b4	0.07675496
85	0xbceb0372	-0.028688166
86	0xbca152b7	-0.019692762
87	0xbe126482	-0.14296153
88	0x3d98c275	0.07458965
89	0x3e1ae309	0.1512567
90	0xbc0794b2	-0.008275198
91	0x3c6dbd37	0.014510444
92	0x3c111af5	0.008856525
93	0x3dbb3653	0.09141221
94	0x3d198a6d	0.03748553
95	0xbde5deee	-0.11224161
96	0x3ccc23ef	0.024919478
97	0x3d2ecbb5	0.04267474
98	0xbd00f07d	-0.031479347
99	0x3e3b4163	0.18286662
100	0xbd5fa5a0	-0.05460131
101	0xbdcd630f	-0.100286596
102	0xbde3140d	-0.11087809
103	0xbcc03e90	-0.023467332
104	0x3dd47c65	0.10375289
105	0x3d6fcb43	0.058543455
106	0xbd81f94a	-0.06346376
107	0xbd7c4537	-0.061589446
108	0xbca24613	-0.019808805
109	0x3d16b137	0.0367901
110	0xbe35751b	-0.17720453
111	0xbd0ca766	-0.03433933
112	0x3d752f83	0.059859764
113	0xbcbb1295	-0.022836009
114	0x3d83defe	0.06439017
115	0x3d65c786	0.056098484
116	0xbe5d2a93	-0.21598272
117	0x3dd504b4	0.10401288
118	0x3cc7ae60	0.02437514
119	0xbe69d60c	-0.22835559
120	0x3d34c88f	0.04413658
121	0xbe1405c1	-0.1445532
122	0x3c14beb2	0.009078668
123	0xbb0c6608	-0.002142312
124	0xbe177e4d	-0.14794274
125	0x3d499f4b	0.04922418
126	0x3dc5fc87	0.096673064
127	0x3d7fdd17	0.062466707
128	0xbcf1830f	-0.029481439
129	0x3d896279	0.06708235
130	0x3d0b4ada	0.03400693
131	0xbd23bc09	-0.039974246
132	0xbdbc257c	-0.09186837
133	0xbde4384c	-0.1114355
134	0x3d880f10	0.06643498
135	0x3cd8dbeb	0.026472053
136	0x3d9554b1	0.07291544
137	0x3d2f326e	0.042772703
138	0x3da0897f	0.07838725
139	0xbdeb374d	-0.11485157
140	0x3d3a3b1e	0.045466535
141	0xbd75d1fa	-0.060014702
142	0xbd6246d6	-0.055243336
143	0x3c73eddf	0.014888256
144	0x3df9b945	0.121935405
145	0x3d846cb5	0.06466047
146	0xbd685df8	-0.05673024
147	0xbb3448cd	-0.0027509213
148	0x3daecbb7	0.08534949
149	0xbc45ea86	-0.0120798405
150	0x3d85d36e	0.06534468
151	0xbdb91740	-0.09037638
152	0xbd00ef86	-0.031478427
153	0xbddb7db3	-0.107173346
154	0x3d202e58	0.039106697
155	0xbe0f137d	-0.13972278
156	0xbd955169	-0.072909184
157	0xbdba20c6	-0.09088282
158	0xbc847021	-0.016166748
159	0xbe02fb5f	-0.12791203
160	0xbc0a428f	-0.00843872
161	0x3d96ed58	0.073694885
162	0xbd8516c8	-0.06498486
163	0xbc3518d3	-0.011053282
164	0xbc9ed54a	-0.019388814
165	0xbc553d9e	-0.013015179
166	0xbc884b31	-0.016637417
167	0xbe520286	-0.20508775
168	0xbc6eea73	-0.014582264
169	0x3d37b42a	0.044849552
170	0xbdfd12f1	-0.123571284
171	0xbc200e58	-0.009769045
172	0xbe095513	-0.1341136
173	0xbe0b58cc	-0.13608092
174	0x3d5ce7fd	0.05393218
175	0x3d61ad8a	0.05509714
176	0xbdbbd8c9	-0.09172208
177	0x3def2b4e	0.116781816
178	0xbd492f9e	-0.049117677
179	0x3bbb1eec	0.0057104733
180	0xbca46b8f	-0.02007082
181	0xbcf5471e	-0.029941138
182	0x3dfaca81	0.12245656
183	0x3d080610	0.033208907
184	0xbc4be368	-0.012444355
185	0xbdb7577f	-0.089522354
186	0xbd148897	-0.036263075
187	0xbda9ddf0	-0.08294284
188	0xbe270725	-0.16311319
189	0x3d0cd1f3	0.03437991
190	0xbdb7b5e0	-0.08970237
191	0x3d4217b3	0.047385883
192	0xbd5cbf92	-0.053893633
193	0xbdc9796b	-0.09837612
194	0x3d1aaff3	0.037765455
195	0x3d02440c	0.031803176
196	0xbd3768e2	-0.04477776
197	0x3d8f5b0d	0.069997884
198	0xbd61e99c	-0.055154428
199	0xbdd1a84c	-0.10237178
200	0xbda57768	-0.080794156
201	0xbb60f28c	-0.0034324257
202	0xbd5e448c	-0.05426459
203	0xbc91ff13	-0.017821824
204	0x3d4052c8	0.046953946
205	0xbd20a660	-0.039221168
206	0x3d4d7ca4	0.050167695
207	0x3dbf4738	0.09339756
208	0x3d9cc93d	0.07655571
209	0x3daf5f1e	0.08563064
210	0x3de6c642	0.112682834
211	0xbd820f18	-0.06350535
212	0xba96ba03	-0.0011499528
213	0x3d43ec83	0.047832977
214	0xbe84096b	-0.25788435
215	0xbdac6da9	-0.084193535
216	0x3d014dc4	0.031568304
217	0xbe35d7a8	-0.17758048
218	0xbe05b337	-0.13056646
219	0xbe3eeceb	-0.18645065
220	0xbc33cada	-0.010973657
221	0xbd4563a6	-0.048190735
222	0xbd6142b5	-0.054995257
223	0xbd903dbb	-0.07043024
224	0xbd9e703e	-0.07736252
225	0xbc5f3f46	-0.013625925
226	0x3ddded1a	0.10836239
227	0x3c402d0b	0.011729489
228	0x3db64112	0.0889913
229	0xbd5d1c0e	-0.053981833
230	0xbd622fa0	-0.0552212
231	0xbdefb054	-0.11703554
232	0x3c2ea753	0.01066001
233	0xbc6b8c35	-0.01437669
234	0x3d164c21	0.036693696
235	0x3c1cdeaa	0.009574572
236	0x3d371185	0.044694442
237	0xbdc33458	-0.09531468
238	0x3e29a378	0.16566265
239	0xbc98fe26	-0.018675875
240	0xbdeb0925	-0.114763536
241	0x3a9c5e04	0.0011929874
242	0x3d082173	0.033235025
243	0xbd8b25f0	-0.067943454
244	0xbd39f0f6	-0.045395814
245	0xbd840c24	-0.06447628
246	0x3d14b2e8	0.03630343
247	0x3cda4da2	0.026648346
248	0xbda44d70	-0.080225825
249	0xb98a4442	-0.00026372267
250	0x3e2612ea	0.16218153
251	0xbbf7eaa6	-0.007565814
252	0xba4ee4ec	-0.00078923884
253	0x3d724338	0.059146136
254	0x3e00e827	0.12588559
255	0xbc1ea407	-0.009682662

bias f4 [128]
0	0x3da3ffeb	0.08007797
1	0x3b6164ed	0.0034392432
2	0xbd48a836	-0.048988543
3	0xbda8b626	-0.08237867
4	0x3d84b46a	0.06479724
5	0xbcdcda75	-0.026959637
6	0xbd25f452	-0.040516205
7	0xbc39217d	-0.011299488
8	0x3c99f523	0.018793648
9	0x3d30ebc2	0.043193586
10	0x3d303a9c	0.043024644
11	0xbde1e9f6	-0.11030953
12	0xbbf780ac	-0.0075531807
13	0xbdc55241	-0.09634829
14	0xbda1161f	-0.078655474
15	0x3d49ce9c	0.049269304
16	0xbd00c0b0	-0.03143376
17	0xbdd95020	-0.10610986
18	0xbd686351	-0.05673534
19	0xbc735574	-0.014851917
20	0x3cdcf097	0.02697019
21	0xbd53434e	-0.05157786
22	0xbc808b6b	-0.01569148
23	0xbdb4f5b1	-0.088359244
24	0xbcafb5e2	-0.021449033
25	0xbdcabffa	-0.09899898
26	0xbddcc524	-0.10779789
27	0xbd3dbca4	-0.04632248
28	0x3db433e6	0.08798961
29	0x3cb28d2c	0.021795832
30	0x3d39e863	0.045387637
31	0x3d0f3ded	0.034971166
32	0xbd70bae7	-0.058771994
33	0x3c4a063a	0.012330586
34	0xbcc8da03	-0.024518019
35	0x3acaa577	0.0015460689
36	0x3a7007ea	0.0009156453
37	0xbd0100b1	-0.0314948
38	0x3d4744b7	0.048649516
39	0x3d59fdd4	0.053220585
40	0x3cc7501a	0.024330188
41	0xbcee7f98	-0.029113576
42	0x3d58f586	0.052968524
43	0xbd9da8a5	-0.07698182
44	0x3da77516	0.08176629
45	0xbd69ecf5	-0.057110745
46	0xbc605669	-0.013692477
47	0xba3fe0cc	-0.0007319569
48	0xbd17ade4	-0.03703107
49	0xbd4644d4	-0.048405483
50	0x3d1f63ab	0.03891341
51	0xbd9355df	-0.07194113
52	0x3ba80b8c	0.0051283296
53	0xbc5e191d	-0.013555792
54	0x3cd7586f	0.026287286
55	0x3c6d1938	0.014471345
56	0xbd617878	-0.05504653
57	0x3c345df5	0.011008729
58	0x3c45e1a6	0.012077725
59	0xbd246f12	-0.040144987
60	0x3ae09da0	0.001713682
61	0xbd64ef41	-0.055892233
62	0xbd4bf0c6	-0.049790166
63	0x3d9085b8	0.07056755
64	0xbd95d25a	-0.07315512
65	0xbde147ee	-0.110000476
66	0x3dd80254	0.10547319
67	0x3b894df3	0.0041902005
68	0x3d9c6dd4	0.076381356
69	0xbd8c0183	-0.06836226
70	0xbd31de24	-0.04342474
71	0xbce6bbd2	-0.028165732
72	0xbd5d974d	-0.05409937
73	0x3d18a657	0.03726801
74	0x3dbea206	0.09308247
75	0x3d0f3889	0.034966026
76	0xbd042a1d	-0.032266725
77	0x3d305549	0.043050084
78	0xbc4e0ddf	-0.012576549
79	0xbc040b39	-0.008059316
80	0x3d0899ea	0.03334991
81	0x3d8bf76b	0.068343006
82	0x3dc52d3d	0.09627769
83	0x3d0119d4	0.031518772
84	0xbdc8790f	-0.09788715
85	0x3c95161c	0.01819902
86	0xbdb01592	-0.08597864
87	0xbdfa4a43	-0.122211955
88	0x3c7a5b3e	0.015280543
89	0x3c7fcb30	0.0156124085
90	0xbc8bb823	-0.017055577
91	0x3d1f3aac	0.038874313
92	0x3d88d070	0.06680381
93	0xbd094d94	-0.03352125
94	0x3be374b0	0.0069414005
95	0x3daa6cc6	0.08321528
96	0xbd8c0576	-0.06836979
97	0xbc44f7a9	-0.012021937
98	0xbd6f65ce	-0.058446698
99	0xbda3e244	-0.08002141
100	0xbda17a34	-0.078846365
101	0x3c766be2	0.01504037
102	0xbc38201a	-0.011238122
103	0xbd0fcaac	-0.035105392
104	0x3d3836d9	0.04497418
105	0xbd81e530	-0.06342542
106	0xbccdab3a	-0.025106061
107	0xbd1483c3	-0.03625847
108	0x3cc6e8ba	0.024280895
109	0xbd08e1fe	-0.033418648
110	0x3d671410	0.056415617
111	0x3cba3714	0.022731341
112	0xbc2cad3a	-0.010539347
113	0xbd46227f	-0.04837274
114	0x3d91e311	0.071233876
115	0xbdc3500a	-0.095367506
116	0xbcfd7e05	-0.03094388
117	0xbce616c3	-0.028087026
118	0x3d9b0781	0.07569791
119	0xbde9d978	-0.11418432
120	0xbd4d3182	-0.050096042
121	0xbd8964f1	-0.06708706
122	0x39a23817	0.00030940838
123	0xbdd3dc06	-0.103447005
124	0x3d1923bd	0.0373876
125	0x3d72bea1	0.05926383
126	0x3c551074	0.013004411
127	0xbc5b040b	-0.013367663

weight f4 [6, 128]
0	0x3db4b30b	0.08823212
1	0x3daa8a08	0.083271086
2	0x3bb08edf	0.0053881253
3	0x3ca466cb	0.020068547
4	0x3de01d4f	0.1094309
5	0x3dac4cfa	0.084131196
6	0x3d826858	0.06367558
7	0x3d916ef7	0.07101243
8	0x3d00d8d1	0.031456772
9	0x3e2c269a	0.168116
10	0x3da30185	0.07959274
11	0xbd80db30	-0.06291807
12	0x3dda3770	0.10655105
13	0xbcd44d54	-0.02591578
14	0x3d8a9881	0.06767369
15	0x3cfb2b4c	0.030660294
16	0x3e1f27f3	0.15542583
17	0x3b645452	0.0034840298
18	0xbd95ad48	-0.073084414
19	0x3d8bdccf	0.06829225
20	0xbddbb0c1	-0.107270725
21	0x3cf8be9d	0.030364329
22	0xbcd8d3b3	-0.026468134
23	0xbaa9e06e	-0.0012960562
24	0xbcc6d32f	-0.024270622
25	0x3dca42bd	0.098760106
26	0xbd933213	-0.07187285
27	0x3d1b03cf	0.03784543
28	0xbd4725ee	-0.048620157
29	0x3d3e55bd	0.046468485
30	0x3d3f9fc4	0.046783224
31	0x3da911c0	0.08255339
32	0x3c26e323	0.01018599
33	0x3d4c755f	0.04991662
34	0x3cf0713f	0.029350875
35	0x3b398c17	0.002831226
36	0x3ce12c73	0.027487015
37	0xbcc57310	-0.024102718
38	0x3e11d691	0.14242007
39	0x3c8e53be	0.017373916
40	0x3d91b7c2	0.07115127
41	0x3de2c8e4	0.11073473
42	0xbca69ea9	-0.020339327
43	0xbc90fc3d	-0.017698402
44	0x3d314865	0.04328193
45	0x3c8e2385	0.017350921
46	0xbc624382	-0.01381004
47	0xbd9b1b86	-0.07573609
48	0xbdf69fd2	-0.12042202
49	0x3d9749b2	0.07387103
50	0x3db239ac	0.08702406
51	0x3d416f3a	0.047225215
52	0xbd8cdd02	-0.068780914
53	0x3d758b3a	0.05994723
54	0x3c3735ba	0.011182243
55	0x3dd0aa67	0.10188752
56	0x3d6cd479	0.057819817
57	0x3d9a89d0	0.07545817
58	0xbd3bd551	-0.04585773
59	0xbd40ca32	-0.04706783
60	0x3cdeff39	0.027221309
61	0x3d1940ad	0.037415195
62	0xbd86bdeb	-0.06579193
63	0xbdc2f630	-0.09519613
64	0x3a0ab207	0.00052908104
65	0x3d19f24a	0.03758458
66	0xbdc1a691	-0.09455598
67	0xbd532ed8	-0.051558346
68	0xbcbe03c0	-0.023195148
69	0x3d2a1882	0.04152728
70	0xbd821cf2	-0.06353177
71	0x3e08a3d4	0.13343745
72	0xbbcaf112	-0.0061932886
73	0x3d274293	0.040834974
74	0xbd0c8d90	-0.034314692
75	0x3c9aa529	0.018877583
76	0x3d87b620	0.066265345
77	0xbe00f2ef	-0.12592672
78	0xbb90b842	-0.0044164965
79	0xbd813ef4	-0.063108355
80	0x3dd3d60a	0.10343559
81	0x3c9b0f51	0.018928202
82	0x3d5bd8fc	0.05367373
83	0xbd3f8d27	-0.046765473
84	0xbcb8dcba	-0.022566188
85	0x3dbeb4c5	0.09311823
86	0xbd538c70	-0.051647604
87	0x3dd7b29b	0.10532113
88	0x3ced1713	0.028941667
89	0x39ab2248	0.00032641203
90	0xbd8c0dce	-0.068385705
91	0xbd8f6093	-0.07000842
92	0x3dab5be5	0.08367137
93	0x3b2a37c3	0.0025973178
94	0x3dcf943e	0.10135697
95	0xbcf0bfc3	-0.029388314
96	0xbe009747	-0.12557708
97	0x3d347acb	0.044062417
98	0xbd50bb5e	-0.050959937
99	0xbcd045a1	-0.025423827
100	0x3d930804	0.07179263
101	0x3dd84a54	0.10561052
102	0xbd87f8fd	-0.066392876
103	0x3a966d17	0.0011476603
104	0x3d81fddc	0.06347248
105	0x3de562da	0.11200495
106	0x3d35e88f	0.04441124
107	0x3d8dbe48	0.06921059
108	0x3e1f2a4b	0.15543477
109	0x3dadbabd	0.08482883
110	0x3dd4bcb8	0.10387558
111	0xbc5802e0	-0.013184279
112	0x3cf55f70	0.029952735
113	0x3c2cf231	0.01055579
114	0x3d83876f	0.06422316
115	0x3c915633	0.017741298
116	0x3cb7d6cd	0.022441292
117	0x3c63e4da	0.013909543
118	0x3d10f458	0.035389274
119	0x3dfdb47b	0.123879395
120	0xbd11f7e6	-0.035636805
121	0xbdd1c87e	-0.10243319
122	0x3dbfa12c	0.09356913
123	0xbc982df2	-0.018576596
124	0x3de20183	0.110354446
125	0x3da18378	0.07886404
126	0x3d81e339	0.063421674
127	0x3d958558	0.07300824
128	0x3d4087bb	0.047004443
129	0x3d86f230	0.06589162
130	0xbd8721b8	-0.06598228
131	0xbe10433e	-0.14088151
132	0xbcdc8b1c	-0.026921801
133	0x3e102a0e	0.14078543
134	0xbbdeabb6	-0.006795372
135	0x3ceec017	0.02914433
136	0x3e89fe4a	0.2695182
137	0x3d26def6	0.040739976
138	0x3d79088e	0.060799174
139	0xbd22249f	-0.039585706
140	0x3cd6e947	0.026234282
141	0x3ccca2eb	0.02498003
142	0x3db0799a	0.08616944
143	0x3dc5a797	0.09651106
144	0x3d700d80	0.058606625
145	0xbd0c324b	-0.03422765
146	0xbd7635f4	-0.060110047
147	0xbcde8aa4	-0.027165718
148	0xbddec34f	-0.10877096
149	0x3c931bee	0.017957654
150	0xbe3fe851	-0.18740965
151	0x3d3a1ffb	0.045440655
152	0xbd41b86f	-0.04729503
153	0x3d29992a	0.041405834
154	0xbdd18877	-0.10231107
155	0x3e1ab77d	0.15109058
156	0xbda75563	-0.08170583
157	0xbc16eae9	-0.00921128
158	0xbd8c526d	-0.06851659
159	0x3c2c1389	0.010502704
160	0xbcc13657	-0.023585482
161	0xbd29ee5a	-0.041487075
162	0x3cb769a6	0.022389244
163	0x3d8c9433	0.06864204
164	0x39ba976a	0.00035589497
165	0xbcb454c4	-0.022013076
166	0x3dd3a388	0.103339255
167	0xbd64d2ca	-0.055865087
168	0x3dc0f22e	0.09421192
169	0xbbb2c177	-0.0054551917
170	0xbdcab18b	-0.09897145
171	0x3d4a5cdf	0.049404975
172	0x3d9186ef	0.07105815
173	0x3c6551db	0.013996567
174	0x3d7e4c04	0.062084213
175	0x3e111156	0.1416677
176	0x3cc68b0a	0.02423622
177	0xbda8c135	-0.08239976
178	0x3c2e5535	0.010640432
179	0x3e0f2845	0.13980205
180	0xbd0fbecd	-0.03509407
181	0x3d6d0721	0.057868127
182	0x3e4c54b3	0.19954185
183	0xbb71f7ae	-0.003692131
184	0x3dbfddc1	0.09368468
185	0x3d99e65f	0.07514643
186	0x3d32cbba	0.04365132
187	0x3dce7152	0.10080208
188	0x3d453e75	0.048155267
189	0x3ce4f42e	0.027948465
190	0xbd09dbc6	-0.033656858
191	0x3d791920	0.060814977
192	0x3d32819a	0.04358063
193	0x3d191dd5	0.037381966
194	0xbe122000	-0.1427002
195	0x3c912d9a	0.01772194
196	0xbce0c851	-0.027439268
197	0xbd624fd0	-0.055251896
198	0xbb019f40	-0.0019778758
199	0x3e0e5443	0.13899331
200	0x3db42b65	0.08797339
201	0x3ce3cc97	0.027807517
202	0xbd344bc6	-0.044017576
203	0x3d61891f	0.05506241
204	0x3e6a4257	0.22876869
205	0xbd5c86c5	-0.053839464
206	0x3c8a0ccf	0.01685181
207	0xbd884d4e	-0.0665537
208	0xbc335f1e	-0.010947971
209	0xbd899538	-0.06717914
210	0xbd9ff902	-0.07811166
211	0x3d5edbb0	0.05440873
212	0xbda52af9	-0.08064837
213	0x3dd9ce95	0.106351055
214	0xbd2425aa	-0.04007498
215	0x3db6f0d5	0.08932654
216	0xbd53db9b	-0.051723104
217	0xbd885ee2	-0.066587225
218	0xbc59e32a	-0.013298789
219	0x3d277bb7	0.040889468
220	0xbd10ff15	-0.035399515
221	0x3c2d2208	0.010567196
222	0x3de04627	0.109508805
223	0xbdc5fd63	-0.0966747
224	0xbda0cb5a	-0.07851286
225	0xbda9296c	-0.08259854
226	0x3d008e63	0.03138579
227	0x3a62cb40	0.00086515024
228	0xbd398ef2	-0.04530234
229	0x3ddc0de2	0.107448354
230	0x3c7fb01d	0.0156059535
231	0x3d8cdf15	0.06878487
232	0x3d50519a	0.05085907
233	0x3d5e4548	0.05426529
234	0x3deda456	0.1160361
235	0x3cbe6c15	0.023244897
236	0x3d7cf838	0.061760157
237	0x3e4ba5eb	0.19887511
238	0x3de1a721	0.110182054
239	0x3d618e41	0.055067305
240	0xbd8e4541	-0.06946803
241	0xbd0c0c05	-0.03419115
242	0x3d6a5194	0.057206705
243	0xbd84d364	-0.06485632
244	0x3ba5ce0b	0.0050599626
245	0xbcd051e8	-0.025429681
246	0xbdfd4fc1	-0.123687275
247	0xbd8c2f4f	-0.06844961
248	0xbd85418e	-0.06506644
249	0xbdbab44b	-0.091164194
250	0x3ddba4d1	0.107247956
251	0xbd47b68d	-0.04875808
252	0x3d7a0f35	0.06104966
253	0x3d17d6d4	0.03707011
254	0xbd1890f4	-0.037247613
255	0x3d6e10b3	0.058121394

bias f4 [6]
0	0xbbe121a9	-0.0068704677
1	0x3d09b810	0.0336228
2	0x3cb9cfe6	0.022682142
3	0x3daf78cc	0.08567962
4	0xba472512	-0.00075967715
5	0x3b5c4baf	0.0033614447
