DynaQ/V1_Standard/modelDynaQ_V1.pt (torch, 80580 bytes, 6 tensors)

weight f4 [128, 13]
00000000: e750 3a40 b930 a43e ce79 943e bb39 e93e
00000010: 3779 303f c964 9f3f f76a a23f ae1c ac3f
00000020: d4af 39bf bd8d c7be cc1e 2bbe da97 43bf
00000030: 2701 efbe 1656 5340 129e c53f 4a08 0040
00000040: c80a ea3f f6f1 f53f 54ae f63f 9c7d f63f
00000050: c802 a9be 2080 f93f ddb9 67bd ff9d e83f
00000060: a80c f93f 0276 803f 1f17 1640 f348 cf3e
00000070: 3fbd 733f 682d 943f 489c 7c3f 7c66 c13f
00000080: 6092 ad3f b7ce f4be 4020 bdbe 8b70 403f
00000090: 9b83 87be e437 023f 7606 563f 14de 4940
000000a0: 8692 2c40 848c 2340 b885 ff3f e86f c93f
000000b0: e45e 3440 ad82 1c40 d9d1 0540 137e f13f
000000c0: ef84 0040 0cec 0740 8f59 2240 6e10 773f
000000d0: 950c eebf cab5 61bf 11b8 93bf e98a 33bf
000000e0: 41fc 9cbf 0acc d2be 5fc3 42bf 404a 0ec0
000000f0: 325d e9bf 7aa7 37c0 afb3 b4bf 64e9 dd3f
00000100: e3f3 6a3f 1cfa 0e40 61e1 ab3f 1279 0340
00000110: fbd7 ce3f c0a2 d03f 0496 883f d353 0f40
00000120: 2b10 8b3f a085 6b3f ff5c f53f b9e7 753f
00000130: 82e8 8d3f 225c d23f 3d5c 2340 dea0 dc3f
00000140: f746 0340 21ad 2d40 1266 0440 53e5 0b40
00000150: c443 4540 4116 d53f 0b1d 9c3f 4143 9a3f
00000160: c6cc 2540 e8fa 0540 174c ca3f af35 ea3f
00000170: 9f94 6a3f 4847 0240 013f b93f 670a 8a3f
00000180: cf6a 903f 6c25 a13f 54fe ae3f 5211 503f
00000190: 09fd 8a3f d11a bb3f 8859 a83f a0ce 903f
000001a0: b8f1 4040 1bd4 ab3f b10e 933f 21aa dc3f
000001b0: 4446 0840 3f6c 0740 69ab 1140 0e22 1640
000001c0: 2db3 9e3e 4cfb 203f 03a7 103f 092b 643f
000001d0: 6798 803f 76f4 0f40 b652 873f 23c7 0e3f
000001e0: 6684 4e3f 5d17 993f 8acd 0a40 cd91 2340
000001f0: 79cb b83f f2f3 423f facc 893f ec87 493f
00000200: 1606 c03f fc3f 9a3f cf6b 3840 a5c2 0840
00000210: b14e 933f 2ca4 0640 d618 f53f dcb1 0e40
00000220: f467 733f c0f9 e13f f345 e73f 2613 9b3f
00000230: 5003 0c40 735b de3f c863 c33f 704e 7740
00000240: 5370 0440 6bd3 7c3f 7c99 0240 8723 0640
00000250: c8ae 0f40 8f5e d73f 698c 2340 e738 863f
00000260: ae2a a43f eb2c de3f 459f a03f 534c a13f
00000270: 0c24 3840 ca28 3a3f 15be 9b3f 88d9 5f3f
00000280: 3e77 873f 9eff f33f 81c8 be3f 042c 1d3f
00000290: f1f2 0f3f 6fbb 973f e3c2 413f bc25 13bd
000002a0: 384c 493f f8bf f63f 4dbd 403f b062 933f
000002b0: 926e 613f cf12 873f c3b0 a93f ea59 c83f
000002c0: 6fde 1a3f 29f9 c23e e3af 003f a32f c03e
000002d0: 1d6b b5be b923 bc3e 704e 59bd fad0 30be
000002e0: a1c2 ffbe 3372 00bf b9eb bfbe cdd4 8d3e
000002f0: fb79 17bf 215d 48c0 195f d43f 1a0a 08bf
00000300: bf34 abbe 534f 2c3e 02ba f13e e811 2f40
00000310: bcd8 263f 4bed d03f 87bb 873f 32e5 603f
00000320: 1900 e73f 9b35 e53f 90b0 8e3f 4af0 ab3e
00000330: e3f5 f83e a519 05be 4f91 173f 6776 4f3f
00000340: 8185 2540 745a 8c3f 6ae1 743f d2de b53f
00000350: bf8e fe3f 175b dd3f 33c2 b13f ff83 903f
00000360: aefa 133f 2a49 bb3f 6935 223f 1e71 6c3f
00000370: fc02 c03f 74d1 0540 793c ea3e 5868 b53e
00000380: f0e6 8a3f 7dda 943f a015 033e 09f9 323f
00000390: a5bc f9be 5dba 663f 09b3 23be f5d8 fe3e
000003a0: fb7f 633f ea21 8c3f 25f3 3240 fa35 723f
000003b0: 428a c83f 37f0 9a3f 3b1d b83f 690c 0a40
000003c0: 214d d83f 3330 13bf f248 b93f 9458 563e
000003d0: a734 0440 0671 bf3e f789 bc3f c632 193f
000003e0: 44c8 133e d484 f53d 76da 833e a195 ae3e
000003f0: 5ee2 193e 2b6d 7bbd 3687 203e c599 ea3e
2.911188 0.32068422 0.2899918 0.45551857 0.6893496 1.2452632 1.2688893 1.3446252
-0.7253392 -0.38975325 -0.16710967 -0.7640358 -0.46680567 3.3021293 1.5438864 2.000506
1.828454 1.9214466 1.9271951 1.9257083 -0.33009934 1.9492226 -0.056573737 1.8173217
1.9456987 1.0036013 2.3451612 0.40485343 0.9521064 1.1576357 0.98675966 1.5109401
1.3560295 -0.4781396 -0.36938667 0.75171727 -0.26467595 0.5086653 0.8360361 3.1541796
2.696443 2.5554514 1.9962683 1.5737276 2.8182917 2.4454758 2.090933 1.88666
2.0081136 2.1237822 2.5367162 0.96509445 -1.859759 -0.88168013 -1.1540548 -0.70133835
-1.2264482 -0.41171294 -0.7607936 -2.2232819 -1.8231566 -2.869597 -1.4117335 1.733685
0.9177839 2.2340155 1.3428155 2.0542645 1.6159662 1.6299667 1.0670781 2.2394912
1.0864309 0.9200077 1.9169005 0.96056706 1.1086581 1.6434367 2.5525048 1.7236593
2.0512064 2.713692 2.0687299 2.1858718 3.082261 1.6647416 1.2196363 1.2051774
2.5906234 2.093439 1.5804471 1.8297633 0.9163303 2.0356007 1.4472352 1.0784425
1.1282595 1.2589545 1.3671365 0.8127643 1.085847 1.4617559 1.3152323 1.1313057
3.0147533 1.3424104 1.1488858 1.7239419 2.1292887 2.1159818 2.276087 2.3458285
0.30996075 0.6288345 0.5650484 0.89128166 1.004651 2.2492957 1.0572116 0.5577261
0.80670774 1.1960255 2.168795 2.555774 1.4437095 0.7615348 1.0765679 0.78723025
1.5001857 1.2050776 2.88158 2.1368802 1.150839 2.1037703 1.9148204 2.2296057
0.95080495 1.7654343 1.8068222 1.2115219 2.1877022 1.7371658 1.5264826 3.8641624
2.0693557 0.987601 2.040618 2.0959184 2.2450428 1.6825732 2.555445 1.0486115
1.2825525 1.7357458 1.2548605 1.2601417 2.8772001 0.7271849 1.2167383 0.874413
1.0583265 1.9062383 1.4904939 0.6139529 0.56230074 1.1854075 0.75688 -0.03592466
0.78631926 1.9277334 0.7528885 1.1514492 0.8805934 1.0552615 1.3257068 1.565244
0.60495657 0.3808072 0.5026838 0.37536344 -0.35433283 0.36746004 -0.05305332 -0.17267218
-0.49953178 -0.50174254 -0.3748453 0.27701417 -0.591705 -3.1306841 1.6591522 -0.53140414
-0.3343868 0.16827135 0.47212225 2.735468 0.6517446 1.6322416 1.0604104 0.87849724
1.8046905 1.7906984 1.1147633 0.33581764 0.48625097 -0.12998064 0.592061 0.8104004
2.5862734 1.0965104 0.95656455 1.4208624 1.9887313 1.7293423 1.388739 1.1290282
0.5780438 1.4631703 0.6336275 0.92360103 1.5000911 2.090909 0.45749262 0.3543117
1.0851727 1.1629177 0.12801218 0.6991125 -0.48776737 0.9012812 -0.15986265 0.497749
0.8886716 1.094785 2.7960904 0.9461361 1.5667193 1.2104558 1.438392 2.1570075
1.6898538 -0.5749542 1.4475386 0.20932227 2.0657136 0.37390918 1.4729604 0.598431
0.14431864 0.119882256 0.2575261 0.34098533 0.15027758 -0.061383408 0.15676579 0.45820442

bias f4 [128]
00000000: 89d2 2ac0 9228 e3bf 208e 18c0 5257 9ebf
00000010: 622f 55bf e5fd debf 765b c5bf a29b 7abf
00000020: 9ab5 57c0 6c66 e0bf 6f38 99bf 3adc 0dc0
00000030: 93c6 f1bf e60e e4bf 40f6 1e3f 329b 00c0
00000040: 4129 0cc0 c05a c6bf c7e4 2fc0 73a4 21bf
00000050: dd54 debf dd16 03c0 d7d0 d7bf ddb1 06c0
00000060: e475 d5bf a13a 0bc0 85e2 ebbf 227d 2a3f
00000070: f504 30bf 1ed9 b5bf da5d 09c0 69e1 2c40
00000080: b2f7 ba40 98d5 f9bf a01b efbf 8158 94bf
00000090: 0be3 4b3e b070 d9bf 189f 1640 e9be c5bf
000000a0: 7654 c0bf 7c83 a9bf e84e 03c0 1eee 9abf
000000b0: 8570 fdbf 263a 90bf c0a7 11c0 2033 4bbf
000000c0: bd09 03c0 858c 0fc0 596f ccbf 7e12 14c0
000000d0: e5a7 96bf 33a0 d6bf a5c0 99bf 06ac 85bf
000000e0: a559 05c0 8c01 0fc0 0037 74bf c452 05c0
000000f0: f883 fdbf 5fe4 b9bf d090 9abf 2e18 06c0
00000100: 259d 10c0 7f89 13c0 69b9 cbbf 8640 e9bf
00000110: 81a4 bdbf 9452 22c0 6e86 b1bf bc3e 8abf
00000120: 9510 2bc0 3572 20bf 574b eabf dc7b febf
00000130: 4651 07c0 0dc1 a33d fef8 f7bf 59eb 9dbf
00000140: 5a43 09c0 fad4 1841 ce0f 52bf 9852 fcbf
00000150: e5c0 4dbf b7ca edbf c8a4 a0bf e132 95bf
00000160: 6f08 1bc0 3032 b2bf a3f7 e6bf 550a c4bf
00000170: ab38 ddbf 44ff 09c0 4dd1 3dbf 249c 1bc0
00000180: 4f48 a4bf 2aaf 14c0 0a81 e0bf 77eb 06c0
00000190: fa35 01c0 09bf 2140 7ebe b8bf 92a8 db3f
000001a0: aafb 71bf 7308 0cc0 a22f c6bf d016 13c0
000001b0: 2338 3340 ba5f 0ec0 c48d e8bf b4c4 99bf
000001c0: 732f e6bf d507 9dbe e7ad 0fc0 8c17 d0bf
000001d0: 5015 01c0 de54 ebbf ec2d e4bf a0db 2bc0
000001e0: 87a5 debf e779 b13e d1dc acbf 75da 20c0
000001f0: 3959 f0bf 7d12 9ebf 2c9d 55bf 8c78 dfbf
-2.6691 -1.7746756 -2.3836746 -1.2370398 -0.83275425 -1.7421232 -1.5418537 -0.97893727
-3.370459 -1.7531257 -1.1970347 -2.2165666 -1.8888725 -1.7817047 0.620945 -2.0094724
-2.190018 -1.5496445 -2.7483385 -0.63141555 -1.7369648 -2.0482705 -1.6860608 -2.104606
-1.6676602 -2.1754534 -1.8428503 0.6659719 -0.68757564 -1.4206884 -2.1463532 2.701258
5.8427362 -1.9518309 -1.8680305 -1.1589509 0.19910829 -1.6987514 2.3534603 -1.5448886
-1.5025775 -1.3243251 -2.051691 -1.2103918 -1.9799963 -1.1267745 -2.2758636 -0.79374886
-2.0474694 -2.2429516 -1.5971481 -2.3136287 -1.1769987 -1.6767639 -1.2011915 -1.0443122
-2.0835965 -2.2344694 -0.95396423 -2.0831766 -1.9805899 -1.4522818 -1.2075443 -2.0952258
-2.2595913 -2.305267 -1.5915958 -1.8222816 -1.4815828 -2.5362902 -1.386915 -1.0800395
-2.672887 -0.62674266 -1.8304242 -1.9881549 -2.1143355 0.07995806 -1.9372861 -1.2337447
-2.1447358 9.551996 -0.82055366 -1.9712706 -0.8037246 -1.8577489 -1.2550287 -1.1656152
-2.4223897 -1.3921566 -1.8044323 -1.5315653 -1.7282919 -2.1562052 -0.7414749 -2.431405
-1.2834567 -2.3231912 -1.753938 -2.1081216 -2.0189195 2.5272849 -1.4433134 1.7160819
-0.94524634 -2.1880157 -1.5483286 -2.2982674 2.8003013 -2.2245927 -1.8168263 -1.2013154
-1.798323 -0.30670038 -2.2449892 -1.6257186 -2.0169258 -1.8385274 -1.7826514 -2.6852798
-1.7394265 0.34663317 -1.3504888 -2.5133336 -1.8777229 -1.2349392 -0.8344295 -1.7458663

weight f4 [128, 128]
00000000: 0342 90c0 73eb e7bf 581d 5b40 fc08 1c3f
00000010: 8a3f 01c0 37e6 6740 2c1e c83d a3c9 a53f
00000020: e5d3 b53e 794b a6bf 5c14 323e e639 323f
00000030: 5c96 a5be f5e7 5f3d 7782 3d3f c17e 66be
00000040: be66 8840 0a3d dd3f ff8a c53f 3bf7 d03e
00000050: 1fd6 1840 35e4 c4bf f3e0 0ebe 8ee9 c8be
00000060: 8a8b d73f 593f 3fbf a819 d4bf 8823 0cbf
00000070: 2111 0540 ff86 f23f d7fb ae3c 4bb7 88bf
00000080: f136 e3be 8170 c1bf e977 d83f 4b0b a63f
00000090: 5e5b 103d 9de4 7140 b917 753e 6949 a23f
000000a0: 975a a13f 2d1d 1340 9163 613e 8190 c23f
000000b0: f709 b13f c700 5a3f 3ba7 1c3f 05a7 ef3d
000000c0: 0524 90be 9819 c73e e52c 6fbf 0f4c 1640
000000d0: bee7 35c0 4b44 8b3e d162 1b3e c562 f7be
000000e0: 0d05 5040 2309 553e 9e91 e33f 7375 853f
000000f0: 98de 033f 98ee 48be 0373 8f40 4d50 4abf
00000100: 64ac 5540 f6cd 503f 1c45 2a3f c620 093e
00000110: adb3 cb3f c9b9 82bf 0bff c03e 8735 503e
00000120: c1fe 1d3e ba76 823f 06e4 babf ef98 0040
00000130: a2ed 0740 6a95 06be 2b6c da3f 9933 993e
00000140: 8f0c 963f 2826 c3be 5cdd 7f3f 2b0b 8b3f
00000150: 1e7a 70be f6fe 4340 3de8 783f 39d0 c93e
00000160: bde7 3abf a6ff ce3f b628 1dbf 6a21 ff3f
00000170: cec6 38be 826a 4ebf a0dd ccbc b20e ddbf
00000180: 2432 81bf 2f91 1540 e2d2 c8bf 5c75 be3f
00000190: 3d2d 3fbf 3171 31bf 555e ee3f 2cdf 643e
000001a0: b250 53bf 526a e13f 2f9a 2cbf 2388 64c0
000001b0: cc26 78bf 25ce 233e d9ae 54c0 e447 c23f
000001c0: 31f6 543f 288e 40bf f3b8 af3e 1a64 6340
000001d0: 06b4 a9bf ee8e 1abf ad27 04bf a513 20bf
000001e0: dab5 3a40 597a b9be f87e 953f ec98 8c3f
000001f0: c433 13be d7d6 2cbe 16fa 203f 5455 8bbe
00000200: d267 3e3f 3379 cc3e 12f1 073f 1e68 2e3d
00000210: f10d 99be 9195 053f 3c52 73bf 8901 1a3f
00000220: 902e 483f e672 a03e 4b3f 483e e6ad b23e
00000230: 3d33 e63d 6060 ba3e 392c c43e e2bb c93e
00000240: afcd d63e 3505 503d b200 e63d d07e 993e
00000250: d9ba 123f 81c1 223f 06d7 083f 9176 1c3f
00000260: cdd1 df3e a419 823e 936b f53e e744 753e
00000270: f255 373e f43a 3d3f 2407 543f 1e38 883e
00000280: c54d a8be 893d 33be 1994 4bbe f281 2a3f
00000290: 14b2 163f 0077 863f 8672 38c0 9259 1e3e
000002a0: a442 c43e 7a65 703e a8b5 a83f 6005 c33e
000002b0: f74b 6f3e 76d8 79be cc35 273f f82a 343e
000002c0: 4656 e93e 2431 c33e 619d f33e 6305 ad3e
000002d0: a2ba da3e 9b4f 7b3d 6fbd 143f 45fa db3e
000002e0: ae10 553e 08b8 9d3e e241 20be aadf 213f
000002f0: 0409 c23e c0a2 a43c 6a85 9e3f ea69 823e
00000300: 3b61 063f 24ba f33d 1750 503e 10d0 4c3e
00000310: cb89 063e 992c d83d 4829 223f 27be 7d3e
00000320: eb7d f63e cc8e 583e 3549 c2bd 8106 1e3f
00000330: 7216 e33c 6fb2 a13d ce89 293c ab73 6d3e
00000340: 724e e03e 3b15 163e 041a c23e bc2f 883d
00000350: f3cf 223f c055 a23e 5e55 163f 5321 30c0
00000360: 403a 733e dff3 5a3e b139 af3e 0eaa dd3e
00000370: cc72 f23c 0dae d5bd b3ef 043f 573c 863e
00000380: f4c4 5f3d 7d6e f23e 3596 a9be 6870 813e
00000390: 211b febd 8412 293c a52b 4c3e 1a5f 59bf
000003a0: 4633 27be 1c66 963e de3d a7be 4470 973f
000003b0: 630c 8fbd 5173 8c3f c6d5 fd3e d51c 103f
000003c0: 6c1f d73e 48cd 11be 3f1b 9a3d 32f1 d43e
000003d0: 882e 023e 3e95 7c3e dccf 513f d362 9e3f
000003e0: 9fbd 74bf f90d 113e 300b 143f c48d 1f3f
000003f0: 36da 2b3e 0862 bf3e 0447 2d3f 442c 0d3d
-4.508058 -1.8118728 3.423666 0.6095121 -2.019503 3.6234262 0.0977138 1.295216
0.35513225 -1.2991782 0.17390579 0.69619596 -0.32341278 0.05466457 0.740272 -0.2250929
4.262542 1.7284253 1.5433043 0.40813622 2.388069 -1.5382143 -0.13952999 -0.39240688
1.6839459 -0.74706036 -1.657033 -0.54741716 2.0791705 1.8947448 0.021360321 -1.0680937
-0.44377854 -1.5112458 1.6911594 1.2972196 0.035243385 3.7795784 0.2393483 1.2678653
1.2605771 2.2986557 0.22010638 1.5200349 1.3831166 0.85157436 0.61192673 0.11701778
-0.2815248 0.38886714 -0.9342788 2.3483922 -2.8422694 0.2720054 0.15174414 -0.48317543
3.2503083 0.20804267 1.7778814 1.0426468 0.51511526 -0.19622266 4.4827895 -0.7902878
3.338647 0.8156427 0.665117 0.13391408 1.5914208 -1.0212947 0.37694582 0.20332919
0.15429212 1.0192482 -1.4600837 2.0093343 2.123879 -0.13142934 1.706426 0.29922178
1.1722583 -0.38115048 0.9994714 1.0862783 -0.23484084 3.0624366 0.9722937 0.39416674
-0.73009855 1.6171768 -0.61390245 1.9932072 -0.18044588 -0.8063127 -0.025008023 -1.727011
-1.0093427 2.3369863 -1.5689356 1.4879565 -0.74678403 -0.6931334 1.8622538 0.22350758
-0.82545006 1.7610571 -0.67422765 -3.5708091 -0.969342 0.15996607 -3.3231719 1.5178189
0.8318816 -0.75216913 0.34320793 3.5529847 -1.3258064 -0.60374343 -0.5162304 -0.62529975
2.9173493 -0.36226156 1.1679373 1.0984168 -0.14375216 -0.1687883 0.628816 -0.27213538
0.7437717 0.39936218 0.5310222 0.042579763 -0.2989345 0.52181345 -0.95047355 0.6015859
0.7819605 0.3133766 0.19555394 0.348983 0.11240242 0.36401653 0.3831499 0.39401156
0.419538 0.050786216 0.11230601 0.29979563 0.57316357 0.63576514 0.534531 0.6111842
0.43714753 0.25410187 0.47933635 0.23952065 0.1790388 0.7391808 0.82823396 0.26605314
-0.32871833 -0.17503943 -0.19880714 0.6660453 0.58865476 1.0505066 -2.88199 0.15463856
0.38332093 0.2347621 1.3180437 0.38090038 0.23368822 -0.2439898 0.6531646 0.17594516
0.45573634 0.3812343 0.47581008 0.33793172 0.42720515 0.061355215 0.5810155 0.42964378
0.20807144 0.30804467 -0.15650132 0.6323191 0.37897503 0.020097136 1.2384465 0.2547143
0.5249211 0.11900738 0.20343052 0.20001245 0.13138501 0.10555381 0.6334424 0.24779569
0.48142943 0.21148223 -0.094866194 0.61728674 0.027720664 0.07895362 0.010347797 0.23188655
0.4380985 0.14656536 0.37910473 0.066497296 0.63598555 0.31706047 0.5872401 -2.752034
0.2375269 0.21382092 0.34223703 0.43293804 0.029595755 -0.10433588 0.5192825 0.2621791
0.05463119 0.4734992 -0.3312241 0.25281072 -0.12407518 0.010319356 0.19938524 -0.8491074
-0.16328153 0.29374778 -0.32664388 1.1831136 -0.069847845 1.0972692 0.4957716 0.56293994
0.4201616 -0.14238465 0.07524728 0.41590267 0.12713063 0.24666306 0.81957793 1.2373909
-0.9560184 0.14165486 0.5782957 0.6232569 0.1678246 0.3737948 0.67686486 0.034466043

bias f4 [128]
00000000: 4cf3 4abf 9c57 513e b0d6 b8be 99dc 45be
00000010: 8d6b 533e 77d5 debe 4fb8 8fbf e15c e5bd
00000020: ec9f 403e 0c13 a03d bbb7 98bf 459b fdbe
00000030: 966d 54bf 6a0f aabe 0fb3 babd e538 3bbd
00000040: d71e 833e 5578 0bbf 3c35 07be 5630 06be
00000050: 5089 0abe f2a5 a7bd ef82 27bd e394 37bf
00000060: d080 7fbf a6b6 febe 40e2 d9bf 1b6d 2dbf
00000070: 1c2a 4f3e 3666 2dbb 3c1f 12be 3538 c63d
00000080: c8e7 04bf 8466 adbf 6f0b 56be b182 6abe
00000090: 4b1f 85bf fbcc b3bd 75cc 44bf 6da1 06be
000000a0: 3ebe 18bf 1274 993d a31c cd3c fd93 d2bd
000000b0: ca0b 483a 1d2d 2abe 6956 60bc 915f e7be
000000c0: 4c0f 29bd c695 eabd 089a 16bf e7e9 31bf
000000d0: 4b0e 91bc 0295 0cbe 6ba4 67be a9aa 903c
000000e0: da57 4fbe 9968 adbe 7d24 9b3e fa13 40bf
000000f0: ca65 47be 1e4a aabe acbf 853c b969 bdbf
00000100: 25ae c2bd a701 e8bf b8d5 293f 7463 ccbe
00000110: 00eb b13e 045b a3bd 698d 19bf 251c e4be
00000120: fa48 c9be 008d 69be ed02 853e 9c57 88be
00000130: 6a47 9abe 3526 51bf fa08 42bf 7c8f 2bbe
00000140: 486a 0f3e d165 d0be f465 773d 00e0 8abf
00000150: 3df4 e8bd ffb1 c5be 938a cabd a455 ebbe
00000160: 21ea 8c3e 69cf 7dbf 4bd9 dfbf 5333 c2be
00000170: 541e 5c3d 78f4 ebbe d4c7 c1be 03d2 133f
00000180: b356 98bd 9d5e 8dbe f1be afbd 95b1 b2be
00000190: 3020 65be 203c 023e 4aa8 84bf 7c94 c5bf
000001a0: 6c41 d7be 5779 95be 34ff c1be 62f3 f6be
000001b0: f86d 6c3c 3924 4dbe fb1d fabe e1e1 0ebc
000001c0: 482e 66bd cbdc b8bd b86c b3be 323f 64bf
000001d0: 3e2e 03bf e889 33bf f611 82bf 6d14 8dbe
000001e0: a2ab 74bf 002a 70bf 6236 ecbd e018 81be
000001f0: f909 02bf 9362 a4bf e317 2b3e 5d3f b93e
-0.7927749 0.20443577 -0.36101294 -0.19322433 0.20646496 -0.43522236 -1.1228122 -0.11199356
0.18811005 0.07816133 -1.193107 -0.49532524 -0.82979715 -0.33214885 -0.09116184 -0.045708556
0.25609466 -0.5448049 -0.13203901 -0.13104376 -0.13528943 -0.081859484 -0.040896352 -0.7171156
-0.9980593 -0.49748725 -1.7022171 -0.67744607 0.20230907 -0.0026458628 -0.14269727 0.096786894
-0.5191617 -1.354691 -0.20902799 -0.22901417 -1.0400175 -0.08779331 -0.76874477 -0.13147517
-0.59665287 0.07492842 0.02503807 -0.10282133 0.0007631151 -0.16618772 -0.013692477 -0.451901
-0.041274354 -0.11454348 -0.58828783 -0.6949753 -0.01770701 -0.13728717 -0.22621314 0.017659502
-0.20248356 -0.33868864 0.30301276 -0.7503048 -0.19472423 -0.33259672 0.016326748 -1.4797889
-0.09505872 -1.8125504 0.66341734 -0.39919627 0.34749603 -0.07976344 -0.599814 -0.44552723
-0.3931349 -0.22807693 0.25978795 -0.2662934 -0.3013261 -0.81698924 -0.7579495 -0.16753954
0.14005387 -0.4070268 0.060399964 -1.0849609 -0.1137471 -0.38612363 -0.09889712 -0.45963776
0.27522376 -0.9914461 -1.7488188 -0.37929782 0.05373986 -0.46084952 -0.3784777 0.5774233
-0.074384116 -0.27611247 -0.08581341 -0.3490111 -0.2237556 0.12718248 -1.0363858 -1.5435939
-0.420421 -0.29194137 -0.37890017 -0.4823256 0.0144305155 -0.20033349 -0.48850998 -0.008720846
-0.05619648 -0.09026488 -0.35043883 -0.8915893 -0.51242435 -0.70132303 -1.0161731 -0.27554646
-0.9557439 -0.93814087 -0.1153381 -0.2521429 -0.5079647 -1.2842582 0.16708331 0.36181155

weight f4 [6, 128]
00000000: e9c8 e23d 0910 6a3e f905 a03e 6b4b 1f3f
00000010: afd5 a3be 7449 7d3e 4387 6b3e 3a74 f0bd
00000020: 97a6 1c3f 40d8 993e 413c ec3c fe79 8e3e
00000030: 05d4 123e f93b 083f 47e7 ae3e c521 8a3e
00000040: 773c 043e 7f82 083f 8aea ad3e 4ca4 c53e
00000050: c430 6e3e db5b 5b3e 03bd a2bd 235b 28be
00000060: d68e e23d 8cd3 cfbc eca4 c6bd 8a17 a33d
00000070: 7473 e5be 9ff8 3d3e e400 9ebe eb5b 30bf
00000080: 1b26 b93e 0629 55bc 33f6 fc3e a69a 4d3f
00000090: 3e4a ba3d 274b 08bf 3919 ed3e 2176 0c3f
000000a0: e1d8 bb3e 71cd 5e3e 5221 2b3f 04dd 0dbd
000000b0: 02ca 60bc 9d7c 033f 8243 62bc 586d d73e
000000c0: 4e22 e3be d8e6 423e cfe2 813b 516d 3f3e
000000d0: 7a06 a3bd 5b00 be3e 4c6f 453f 4f0b a7bd
000000e0: a355 903f 5049 dfbd a28d 0c3e 8f2c d33e
000000f0: 58cd 8e3e 5fe8 7c3f dbef 06bf 2e27 203d
00000100: d9f9 38bb 6b5a 22bd 778c 15bd b792 403e
00000110: 8ea7 8bbe 11b8 0d3d d7fb 2f3f c9f8 643d
00000120: b033 393e 3e9d 153f e2c8 babe 44ac 853e
00000130: 4976 0d3f 8f75 f93c 2815 05be 7d5c 9dbd
00000140: f595 a13c 4906 1b3f b18f a3be b3ef 09be
00000150: 3cee 9ebc 977e 7d3e c7fa 5fbd bc07 413f
00000160: 2bf7 3cbd 8cc8 2f3e 024f 263d 015f 063f
00000170: 7603 a83d 114c 063f 2f84 b03d e187 c0bc
00000180: 573e c7be d539 0a3e 2814 35bd 5cf7 4c3f
00000190: fbdb d53e 5b74 813e 4b96 3d3e 4426 0a3d
000001a0: 9b01 a83e 6c8c 113f 037a 883d 521c 133f
000001b0: ce55 263f 2930 a9bd fec5 633c db26 0cbb
000001c0: 10ea afbe 7bd7 873c 7fd7 b03e 9cff cb3e
000001d0: 2b0f e53e c63d da3e 7b33 593e 8447 663d
000001e0: 1a1c 803e c65c d43d efb6 f73d 4425 743e
000001f0: 285b 813e ef6d 41bd 2d3b afbb 1b98 9a3d
00000200: 491d 1a3d 3615 553e 9f60 b03d 936d 0fbf
00000210: 4c34 ebbe 20d9 0d3f c372 a7bd a3dd bb3e
00000220: 8e63 263f 6114 973d 131d 633c d7ca 753e
00000230: 7f48 e3bb fb8c 083f 5647 473f f375 993e
00000240: 7508 56be 97f8 713e 8478 e23e ea99 b9be
00000250: fdd8 8c3b fe18 063e 9158 243f 1ccf af3d
00000260: e690 00bd b579 043f 71fd b93d 86c2 20be
00000270: 7cff 8abe b9f7 49be bcd0 cbbe c380 a9be
00000280: 5c67 463e 7a75 693d 617b b73e 71b7 583e
00000290: f3cd 123e a88f 2cbf 7218 e73e bf8e 5abe
000002a0: f370 863e 78fa edbe ad75 0a3f 0e57 363d
000002b0: 6788 613e c150 8a3f 044c 7e3d ee6b 033f
000002c0: bab8 27bf 8572 c7be 41e2 32bc d3c0 033e
000002d0: bc7b 93bd 6aa3 89be 2e15 313f abef 0abf
000002e0: b952 873e e339 713e aff0 df3d 44cc bc3e
000002f0: c4ce ce3e 0f19 833f fc94 55be b8f5 f43c
00000300: 85dc 3c3d b57f f53c abbe 1cbd a726 543e
00000310: 12a3 0cbf 6fbc 45bd 2b86 e23e b3d1 353e
00000320: d7bf 61be 9283 5a3e c774 6c3d 5cc9 b73e
00000330: c312 f43e 2cb0 05be 6a2c bfbc 69a2 76be
00000340: 9ca7 dd3c 9bc0 f13e a10a 02bf e839 8d3d
00000350: f92a a5bd 5b4e 7c3f 2c23 24bd 9e8a 1a3f
00000360: 6d4b 0abd 6cc9 803e aec7 503b 9cc9 353e
00000370: 8c3d 25bd d285 b43e 0208 fbbd cce0 b2bc
00000380: 2bcd 30be 5e01 923d a25c 713c f522 043f
00000390: 4f94 cbbe d573 573e fd46 d33c 180e 413c
000003a0: ffdf 963e e2a8 a83e 73e3 f73a 9dfb 0f3f
000003b0: 9fcc a93e b0d8 0a3f d11d aa3c 726c ec3d
000003c0: 93c7 8ebe bb87 0abd faff fa3e 5504 603e
000003d0: 8ae3 4fbe 3b24 213d ca79 393e c0da 96be
000003e0: dc83 883e 3fe7 993d 33ed 3d3e fc8d 37be
000003f0: 8281 843e 2b3a ad3d a03a b9bc 2c18 de3d
0.11073477 0.2285768 0.31254557 0.62224454 -0.31998965 0.24735051 0.23000817 -0.117409185
0.61191696 0.30047798 0.028837325 0.27827448 0.14338692 0.5321651 0.34160826 0.2697889
0.1291369 0.5332412 0.33968002 0.3860191 0.2326079 0.21421759 -0.079462074 -0.16441016
0.110624 -0.025369428 -0.09699425 0.07963474 -0.44814646 0.18551873 -0.30860054 -0.68890256
0.36161885 -0.013010269 0.49406585 0.803141 0.09096192 -0.53239673 0.46308306 0.5486775
0.36688903 0.21758057 0.6684772 -0.034634605 -0.013720037 0.5136202 -0.01381004 0.4207561
-0.4436211 0.19033372 0.0039638053 0.18694045 -0.0796022 0.37109646 0.7712295 -0.08156454
1.1276134 -0.10902655 0.13725904 0.41244933 0.2789104 0.9879207 -0.5270974 0.039099865
-0.0028225093 -0.03963701 -0.03651091 0.18805967 -0.27276272 0.034599368 0.6874365 0.055901323
0.18086123 0.5844306 -0.36481386 0.2610799 0.55258614 0.030451564 -0.12996352 -0.07683656
0.019724825 0.60556465 -0.31945565 -0.13470344 -0.019400708 0.24755321 -0.05468252 0.75402427
-0.046134155 0.17166346 0.04060269 0.52488714 0.08203785 0.5245982 0.08618962 -0.023502292
-0.3891475 0.13498624 -0.044208676 0.8006494 0.41769394 0.25284085 0.18514363 0.0337279
0.32813725 0.5685489 0.06663897 0.5746509 0.6497468 -0.08261139 0.0139021855 -0.0021385464
-0.34358263 0.016582241 0.3453941 0.39843452 0.44738135 0.42625254 0.21211044 0.056220546
0.2502144 0.10369258 0.12095439 0.2384234 0.2526486 -0.04722398 -0.0053476305 0.07548543
0.037625585 0.20808873 0.08612179 -0.5602657 -0.45938337 0.5540943 -0.08176186 0.36692533
0.6499566 0.07376934 0.013861912 0.24003159 -0.0069361324 0.5334012 0.77843225 0.299728
-0.20901664 0.23629986 0.4423257 -0.3625024 0.004298328 0.13095471 0.6419764 0.08584425
-0.031388186 0.5174821 0.09081543 -0.15699205 -0.27148044 -0.19723405 -0.3980769 -0.3310605
0.19375366 0.0569968 0.35836318 0.21163727 0.14336376 -0.674067 0.45135838 -0.21343516
0.26258048 -0.46480155 0.5408581 0.044516616 0.2202469 1.0805894 0.062084213 0.5133656
-0.65516245 -0.3895456 -0.010918201 0.12866525 -0.07201335 -0.26882488 0.6917294 -0.54271954
0.264303 0.23557238 0.109345786 0.36874592 0.40392125 1.0242022 -0.20857614 0.029902324
0.04610874 0.029968122 -0.038267773 0.2071787 -0.54936326 -0.048275407 0.44242987 0.17755775
-0.22045837 0.21339253 0.057728555 0.35895813 0.47670564 -0.13055485 -0.023336608 -0.24085392
0.027057461 0.4721726 -0.5079747 0.0689581 -0.08064837 0.9855706 -0.040072605 0.60367763
-0.033763338 0.25153673 0.00318573 0.17752689 -0.0403419 0.35258347 -0.12257387 -0.021835707
-0.17265765 0.07129167 0.014731558 0.5161584 -0.39761588 0.2104028 0.025790686 0.011783145
0.2946777 0.32941347 0.001891239 0.56243306 0.33163926 0.5423689 0.02076617 0.11544122
-0.27886638 -0.03382085 0.4902342 0.21876653 -0.20301643 0.039341193 0.18112865 -0.29463768
0.266631 0.0751481 0.18547516 -0.17925256 0.25880057 0.0845836 -0.022610962 0.10844454

bias f4 [6]
00000000: 0e83 073e 3e28 3d3e 13fe d33d 347b 033e
00000010: ae0a 053e f72e bc3d
0.13233587 0.18472382 0.10351195 0.12839967 0.12992355 0.09188645
